{
  "storage" : "model.espresso.weights",
  "analyses" : {

  },
  "properties" : {

  },
  "format_version" : 200,
  "metadata_in_weights" : [

  ],
  "layers" : [
    {
      "bottom" : "keras_layer_input",
      "alpha" : 2,
      "operation" : 1,
      "weights" : {

      },
      "fused_relu" : 0,
      "debug_info" : "sequential\/keras_layer\/StatefulPartitionedCall\/StatefulPartitionedCall\/StatefulPartitionedCall\/predict\/hub_input\/Mul",
      "top" : "sequential\/keras_layer\/StatefulPartitionedCall\/StatefulPartitionedCall\/StatefulPartitionedCall\/predict\/hub_input\/Mul",
      "type" : "elementwise",
      "name" : "sequential\/keras_layer\/StatefulPartitionedCall\/StatefulPartitionedCall\/StatefulPartitionedCall\/predict\/hub_input\/Mul",
      "beta" : 0
    },
    {
      "top" : "sequential\/keras_layer\/StatefulPartitionedCall\/StatefulPartitionedCall\/StatefulPartitionedCall\/predict\/hub_input\/Sub\/y",
      "w" : 1,
      "h" : 1,
      "name" : "sequential\/keras_layer\/StatefulPartitionedCall\/StatefulPartitionedCall\/StatefulPartitionedCall\/predict\/hub_input\/Sub\/y",
      "nd_rank" : 1,
      "type" : "load_constant",
      "k" : 1,
      "bottom" : "",
      "debug_info" : "sequential\/keras_layer\/StatefulPartitionedCall\/StatefulPartitionedCall\/StatefulPartitionedCall\/predict\/hub_input\/Sub\/y",
      "n" : 1,
      "weights" : {

      },
      "constant_blob" : 1
    },
    {
      "alpha" : -1,
      "bottom" : "sequential\/keras_layer\/StatefulPartitionedCall\/StatefulPartitionedCall\/StatefulPartitionedCall\/predict\/hub_input\/Sub\/y",
      "weights" : {

      },
      "mode" : 6,
      "debug_info" : "_neg_y_sequential\/keras_layer\/StatefulPartitionedCall\/StatefulPartitionedCall\/StatefulPartitionedCall\/predict\/hub_input\/Sub",
      "top" : "_neg_y_sequential\/keras_layer\/StatefulPartitionedCall\/StatefulPartitionedCall\/StatefulPartitionedCall\/predict\/hub_input\/Sub",
      "type" : "activation",
      "name" : "_neg_y_sequential\/keras_layer\/StatefulPartitionedCall\/StatefulPartitionedCall\/StatefulPartitionedCall\/predict\/hub_input\/Sub",
      "beta" : 0
    },
    {
      "bottom" : "sequential\/keras_layer\/StatefulPartitionedCall\/StatefulPartitionedCall\/StatefulPartitionedCall\/predict\/hub_input\/Mul,_neg_y_sequential\/keras_layer\/StatefulPartitionedCall\/StatefulPartitionedCall\/StatefulPartitionedCall\/predict\/hub_input\/Sub",
      "alpha" : 1,
      "operation" : 0,
      "weights" : {

      },
      "fused_relu" : 0,
      "debug_info" : "sequential\/keras_layer\/StatefulPartitionedCall\/StatefulPartitionedCall\/StatefulPartitionedCall\/predict\/hub_input\/Sub",
      "top" : "sequential\/keras_layer\/StatefulPartitionedCall\/StatefulPartitionedCall\/StatefulPartitionedCall\/predict\/hub_input\/Sub",
      "type" : "elementwise",
      "name" : "sequential\/keras_layer\/StatefulPartitionedCall\/StatefulPartitionedCall\/StatefulPartitionedCall\/predict\/hub_input\/Sub",
      "beta" : 0
    },
    {
      "axis_h" : 2,
      "axis_w" : 1,
      "bottom" : "sequential\/keras_layer\/StatefulPartitionedCall\/StatefulPartitionedCall\/StatefulPartitionedCall\/predict\/hub_input\/Sub",
      "axis_k" : 0,
      "axis_n" : 3,
      "axis_seq" : 4,
      "weights" : {

      },
      "debug_info" : "transpose_161",
      "top" : "transpose_161",
      "type" : "transpose",
      "name" : "transpose_161"
    },
    {
      "pad_r" : 0,
      "fused_relu" : 1,
      "fused_tanh" : 0,
      "debug_info" : "sequential\/keras_layer\/StatefulPartitionedCall\/StatefulPartitionedCall\/StatefulPartitionedCall\/predict\/MobilenetV2\/Conv\/BatchNorm\/FusedBatchNorm_nchw",
      "pad_fill_mode" : 0,
      "pad_b" : 0,
      "pad_l" : 0,
      "top" : "sequential\/keras_layer\/StatefulPartitionedCall\/StatefulPartitionedCall\/StatefulPartitionedCall\/predict\/MobilenetV2\/Conv\/Relu6__relu6_relu__",
      "blob_weights" : 5,
      "K" : 3,
      "blob_biases" : 3,
      "stride_x" : 2,
      "name" : "sequential\/keras_layer\/StatefulPartitionedCall\/StatefulPartitionedCall\/StatefulPartitionedCall\/predict\/MobilenetV2\/Conv\/BatchNorm\/FusedBatchNorm_nchw",
      "has_batch_norm" : 0,
      "type" : "convolution",
      "n_groups" : 1,
      "pad_t" : 0,
      "stride_y" : 2,
      "has_biases" : 1,
      "C" : 32,
      "bottom" : "transpose_161",
      "weights" : {

      },
      "Nx" : 3,
      "pad_mode" : 1,
      "pad_value" : 0,
      "Ny" : 3,
      "n_parallel" : 1
    },
    {
      "alpha" : -1,
      "bottom" : "sequential\/keras_layer\/StatefulPartitionedCall\/StatefulPartitionedCall\/StatefulPartitionedCall\/predict\/MobilenetV2\/Conv\/Relu6__relu6_relu__",
      "weights" : {

      },
      "mode" : 6,
      "debug_info" : "sequential\/keras_layer\/StatefulPartitionedCall\/StatefulPartitionedCall\/StatefulPartitionedCall\/predict\/MobilenetV2\/Conv\/Relu6__relu6_neg__",
      "top" : "sequential\/keras_layer\/StatefulPartitionedCall\/StatefulPartitionedCall\/StatefulPartitionedCall\/predict\/MobilenetV2\/Conv\/Relu6__relu6_neg__",
      "type" : "activation",
      "name" : "sequential\/keras_layer\/StatefulPartitionedCall\/StatefulPartitionedCall\/StatefulPartitionedCall\/predict\/MobilenetV2\/Conv\/Relu6__relu6_neg__",
      "beta" : 0
    },
    {
      "bottom" : "sequential\/keras_layer\/StatefulPartitionedCall\/StatefulPartitionedCall\/StatefulPartitionedCall\/predict\/MobilenetV2\/Conv\/Relu6__relu6_neg__",
      "alpha" : -6,
      "operation" : 25,
      "weights" : {

      },
      "fused_relu" : 0,
      "debug_info" : "sequential\/keras_layer\/StatefulPartitionedCall\/StatefulPartitionedCall\/StatefulPartitionedCall\/predict\/MobilenetV2\/Conv\/Relu6__relu6_threshold6__",
      "top" : "sequential\/keras_layer\/StatefulPartitionedCall\/StatefulPartitionedCall\/StatefulPartitionedCall\/predict\/MobilenetV2\/Conv\/Relu6__relu6_threshold6__",
      "type" : "elementwise",
      "name" : "sequential\/keras_layer\/StatefulPartitionedCall\/StatefulPartitionedCall\/StatefulPartitionedCall\/predict\/MobilenetV2\/Conv\/Relu6__relu6_threshold6__",
      "beta" : 0
    },
    {
      "alpha" : -1,
      "bottom" : "sequential\/keras_layer\/StatefulPartitionedCall\/StatefulPartitionedCall\/StatefulPartitionedCall\/predict\/MobilenetV2\/Conv\/Relu6__relu6_threshold6__",
      "weights" : {

      },
      "mode" : 6,
      "debug_info" : "sequential\/keras_layer\/StatefulPartitionedCall\/StatefulPartitionedCall\/StatefulPartitionedCall\/predict\/MobilenetV2\/Conv\/Relu6",
      "top" : "sequential\/keras_layer\/StatefulPartitionedCall\/StatefulPartitionedCall\/StatefulPartitionedCall\/predict\/MobilenetV2\/Conv\/Relu6",
      "type" : "activation",
      "name" : "sequential\/keras_layer\/StatefulPartitionedCall\/StatefulPartitionedCall\/StatefulPartitionedCall\/predict\/MobilenetV2\/Conv\/Relu6",
      "beta" : 0
    },
    {
      "pad_r" : 0,
      "fused_relu" : 1,
      "fused_tanh" : 0,
      "debug_info" : "sequential\/keras_layer\/StatefulPartitionedCall\/StatefulPartitionedCall\/StatefulPartitionedCall\/predict\/MobilenetV2\/expanded_conv\/depthwise\/BatchNorm\/FusedBatchNorm_nchw",
      "pad_fill_mode" : 0,
      "pad_b" : 0,
      "pad_l" : 0,
      "top" : "sequential\/keras_layer\/StatefulPartitionedCall\/StatefulPartitionedCall\/StatefulPartitionedCall\/predict\/MobilenetV2\/expanded_conv\/depthwise\/Relu6__relu6_relu__",
      "blob_weights" : 9,
      "K" : 32,
      "blob_biases" : 7,
      "name" : "sequential\/keras_layer\/StatefulPartitionedCall\/StatefulPartitionedCall\/StatefulPartitionedCall\/predict\/MobilenetV2\/expanded_conv\/depthwise\/BatchNorm\/FusedBatchNorm_nchw",
      "has_batch_norm" : 0,
      "type" : "convolution",
      "n_groups" : 32,
      "pad_t" : 0,
      "has_biases" : 1,
      "C" : 32,
      "bottom" : "sequential\/keras_layer\/StatefulPartitionedCall\/StatefulPartitionedCall\/StatefulPartitionedCall\/predict\/MobilenetV2\/Conv\/Relu6",
      "weights" : {

      },
      "Nx" : 3,
      "pad_mode" : 1,
      "pad_value" : 0,
      "Ny" : 3,
      "n_parallel" : 1
    },
    {
      "alpha" : -1,
      "bottom" : "sequential\/keras_layer\/StatefulPartitionedCall\/StatefulPartitionedCall\/StatefulPartitionedCall\/predict\/MobilenetV2\/expanded_conv\/depthwise\/Relu6__relu6_relu__",
      "weights" : {

      },
      "mode" : 6,
      "debug_info" : "sequential\/keras_layer\/StatefulPartitionedCall\/StatefulPartitionedCall\/StatefulPartitionedCall\/predict\/MobilenetV2\/expanded_conv\/depthwise\/Relu6__relu6_neg__",
      "top" : "sequential\/keras_layer\/StatefulPartitionedCall\/StatefulPartitionedCall\/StatefulPartitionedCall\/predict\/MobilenetV2\/expanded_conv\/depthwise\/Relu6__relu6_neg__",
      "type" : "activation",
      "name" : "sequential\/keras_layer\/StatefulPartitionedCall\/StatefulPartitionedCall\/StatefulPartitionedCall\/predict\/MobilenetV2\/expanded_conv\/depthwise\/Relu6__relu6_neg__",
      "beta" : 0
    },
    {
      "bottom" : "sequential\/keras_layer\/StatefulPartitionedCall\/StatefulPartitionedCall\/StatefulPartitionedCall\/predict\/MobilenetV2\/expanded_conv\/depthwise\/Relu6__relu6_neg__",
      "alpha" : -6,
      "operation" : 25,
      "weights" : {

      },
      "fused_relu" : 0,
      "debug_info" : "sequential\/keras_layer\/StatefulPartitionedCall\/StatefulPartitionedCall\/StatefulPartitionedCall\/predict\/MobilenetV2\/expanded_conv\/depthwise\/Relu6__relu6_threshold6__",
      "top" : "sequential\/keras_layer\/StatefulPartitionedCall\/StatefulPartitionedCall\/StatefulPartitionedCall\/predict\/MobilenetV2\/expanded_conv\/depthwise\/Relu6__relu6_threshold6__",
      "type" : "elementwise",
      "name" : "sequential\/keras_layer\/StatefulPartitionedCall\/StatefulPartitionedCall\/StatefulPartitionedCall\/predict\/MobilenetV2\/expanded_conv\/depthwise\/Relu6__relu6_threshold6__",
      "beta" : 0
    },
    {
      "alpha" : -1,
      "bottom" : "sequential\/keras_layer\/StatefulPartitionedCall\/StatefulPartitionedCall\/StatefulPartitionedCall\/predict\/MobilenetV2\/expanded_conv\/depthwise\/Relu6__relu6_threshold6__",
      "weights" : {

      },
      "mode" : 6,
      "debug_info" : "sequential\/keras_layer\/StatefulPartitionedCall\/StatefulPartitionedCall\/StatefulPartitionedCall\/predict\/MobilenetV2\/expanded_conv\/depthwise\/Relu6",
      "top" : "sequential\/keras_layer\/StatefulPartitionedCall\/StatefulPartitionedCall\/StatefulPartitionedCall\/predict\/MobilenetV2\/expanded_conv\/depthwise\/Relu6",
      "type" : "activation",
      "name" : "sequential\/keras_layer\/StatefulPartitionedCall\/StatefulPartitionedCall\/StatefulPartitionedCall\/predict\/MobilenetV2\/expanded_conv\/depthwise\/Relu6",
      "beta" : 0
    },
    {
      "pad_r" : 0,
      "fused_relu" : 0,
      "fused_tanh" : 0,
      "debug_info" : "sequential\/keras_layer\/StatefulPartitionedCall\/StatefulPartitionedCall\/StatefulPartitionedCall\/predict\/MobilenetV2\/expanded_conv\/project\/BatchNorm\/FusedBatchNorm_nchw",
      "pad_fill_mode" : 0,
      "pad_b" : 0,
      "pad_l" : 0,
      "top" : "sequential\/keras_layer\/StatefulPartitionedCall\/StatefulPartitionedCall\/StatefulPartitionedCall\/predict\/MobilenetV2\/expanded_conv\/project\/BatchNorm\/FusedBatchNorm_nchw",
      "blob_weights" : 13,
      "K" : 32,
      "blob_biases" : 11,
      "name" : "sequential\/keras_layer\/StatefulPartitionedCall\/StatefulPartitionedCall\/StatefulPartitionedCall\/predict\/MobilenetV2\/expanded_conv\/project\/BatchNorm\/FusedBatchNorm_nchw",
      "has_batch_norm" : 0,
      "type" : "convolution",
      "n_groups" : 1,
      "pad_t" : 0,
      "has_biases" : 1,
      "C" : 16,
      "bottom" : "sequential\/keras_layer\/StatefulPartitionedCall\/StatefulPartitionedCall\/StatefulPartitionedCall\/predict\/MobilenetV2\/expanded_conv\/depthwise\/Relu6",
      "weights" : {

      },
      "Nx" : 1,
      "pad_mode" : 1,
      "pad_value" : 0,
      "Ny" : 1,
      "n_parallel" : 1
    },
    {
      "pad_r" : 0,
      "fused_relu" : 1,
      "fused_tanh" : 0,
      "debug_info" : "sequential\/keras_layer\/StatefulPartitionedCall\/StatefulPartitionedCall\/StatefulPartitionedCall\/predict\/MobilenetV2\/expanded_conv_1\/expand\/BatchNorm\/FusedBatchNorm_nchw",
      "pad_fill_mode" : 0,
      "pad_b" : 0,
      "pad_l" : 0,
      "top" : "sequential\/keras_layer\/StatefulPartitionedCall\/StatefulPartitionedCall\/StatefulPartitionedCall\/predict\/MobilenetV2\/expanded_conv_1\/expand\/Relu6__relu6_relu__",
      "blob_weights" : 17,
      "K" : 16,
      "blob_biases" : 15,
      "name" : "sequential\/keras_layer\/StatefulPartitionedCall\/StatefulPartitionedCall\/StatefulPartitionedCall\/predict\/MobilenetV2\/expanded_conv_1\/expand\/BatchNorm\/FusedBatchNorm_nchw",
      "has_batch_norm" : 0,
      "type" : "convolution",
      "n_groups" : 1,
      "pad_t" : 0,
      "has_biases" : 1,
      "C" : 96,
      "bottom" : "sequential\/keras_layer\/StatefulPartitionedCall\/StatefulPartitionedCall\/StatefulPartitionedCall\/predict\/MobilenetV2\/expanded_conv\/project\/BatchNorm\/FusedBatchNorm_nchw",
      "weights" : {

      },
      "Nx" : 1,
      "pad_mode" : 1,
      "pad_value" : 0,
      "Ny" : 1,
      "n_parallel" : 1
    },
    {
      "alpha" : -1,
      "bottom" : "sequential\/keras_layer\/StatefulPartitionedCall\/StatefulPartitionedCall\/StatefulPartitionedCall\/predict\/MobilenetV2\/expanded_conv_1\/expand\/Relu6__relu6_relu__",
      "weights" : {

      },
      "mode" : 6,
      "debug_info" : "sequential\/keras_layer\/StatefulPartitionedCall\/StatefulPartitionedCall\/StatefulPartitionedCall\/predict\/MobilenetV2\/expanded_conv_1\/expand\/Relu6__relu6_neg__",
      "top" : "sequential\/keras_layer\/StatefulPartitionedCall\/StatefulPartitionedCall\/StatefulPartitionedCall\/predict\/MobilenetV2\/expanded_conv_1\/expand\/Relu6__relu6_neg__",
      "type" : "activation",
      "name" : "sequential\/keras_layer\/StatefulPartitionedCall\/StatefulPartitionedCall\/StatefulPartitionedCall\/predict\/MobilenetV2\/expanded_conv_1\/expand\/Relu6__relu6_neg__",
      "beta" : 0
    },
    {
      "bottom" : "sequential\/keras_layer\/StatefulPartitionedCall\/StatefulPartitionedCall\/StatefulPartitionedCall\/predict\/MobilenetV2\/expanded_conv_1\/expand\/Relu6__relu6_neg__",
      "alpha" : -6,
      "operation" : 25,
      "weights" : {

      },
      "fused_relu" : 0,
      "debug_info" : "sequential\/keras_layer\/StatefulPartitionedCall\/StatefulPartitionedCall\/StatefulPartitionedCall\/predict\/MobilenetV2\/expanded_conv_1\/expand\/Relu6__relu6_threshold6__",
      "top" : "sequential\/keras_layer\/StatefulPartitionedCall\/StatefulPartitionedCall\/StatefulPartitionedCall\/predict\/MobilenetV2\/expanded_conv_1\/expand\/Relu6__relu6_threshold6__",
      "type" : "elementwise",
      "name" : "sequential\/keras_layer\/StatefulPartitionedCall\/StatefulPartitionedCall\/StatefulPartitionedCall\/predict\/MobilenetV2\/expanded_conv_1\/expand\/Relu6__relu6_threshold6__",
      "beta" : 0
    },
    {
      "alpha" : -1,
      "bottom" : "sequential\/keras_layer\/StatefulPartitionedCall\/StatefulPartitionedCall\/StatefulPartitionedCall\/predict\/MobilenetV2\/expanded_conv_1\/expand\/Relu6__relu6_threshold6__",
      "weights" : {

      },
      "mode" : 6,
      "debug_info" : "sequential\/keras_layer\/StatefulPartitionedCall\/StatefulPartitionedCall\/StatefulPartitionedCall\/predict\/MobilenetV2\/expanded_conv_1\/expand\/Relu6",
      "top" : "sequential\/keras_layer\/StatefulPartitionedCall\/StatefulPartitionedCall\/StatefulPartitionedCall\/predict\/MobilenetV2\/expanded_conv_1\/expand\/Relu6",
      "type" : "activation",
      "name" : "sequential\/keras_layer\/StatefulPartitionedCall\/StatefulPartitionedCall\/StatefulPartitionedCall\/predict\/MobilenetV2\/expanded_conv_1\/expand\/Relu6",
      "beta" : 0
    },
    {
      "pad_r" : 0,
      "fused_relu" : 1,
      "fused_tanh" : 0,
      "debug_info" : "sequential\/keras_layer\/StatefulPartitionedCall\/StatefulPartitionedCall\/StatefulPartitionedCall\/predict\/MobilenetV2\/expanded_conv_1\/depthwise\/BatchNorm\/FusedBatchNorm_nchw",
      "pad_fill_mode" : 0,
      "pad_b" : 0,
      "pad_l" : 0,
      "top" : "sequential\/keras_layer\/StatefulPartitionedCall\/StatefulPartitionedCall\/StatefulPartitionedCall\/predict\/MobilenetV2\/expanded_conv_1\/depthwise\/Relu6__relu6_relu__",
      "blob_weights" : 21,
      "K" : 96,
      "blob_biases" : 19,
      "stride_x" : 2,
      "name" : "sequential\/keras_layer\/StatefulPartitionedCall\/StatefulPartitionedCall\/StatefulPartitionedCall\/predict\/MobilenetV2\/expanded_conv_1\/depthwise\/BatchNorm\/FusedBatchNorm_nchw",
      "has_batch_norm" : 0,
      "type" : "convolution",
      "n_groups" : 96,
      "pad_t" : 0,
      "stride_y" : 2,
      "has_biases" : 1,
      "C" : 96,
      "bottom" : "sequential\/keras_layer\/StatefulPartitionedCall\/StatefulPartitionedCall\/StatefulPartitionedCall\/predict\/MobilenetV2\/expanded_conv_1\/expand\/Relu6",
      "weights" : {

      },
      "Nx" : 3,
      "pad_mode" : 1,
      "pad_value" : 0,
      "Ny" : 3,
      "n_parallel" : 1
    },
    {
      "alpha" : -1,
      "bottom" : "sequential\/keras_layer\/StatefulPartitionedCall\/StatefulPartitionedCall\/StatefulPartitionedCall\/predict\/MobilenetV2\/expanded_conv_1\/depthwise\/Relu6__relu6_relu__",
      "weights" : {

      },
      "mode" : 6,
      "debug_info" : "sequential\/keras_layer\/StatefulPartitionedCall\/StatefulPartitionedCall\/StatefulPartitionedCall\/predict\/MobilenetV2\/expanded_conv_1\/depthwise\/Relu6__relu6_neg__",
      "top" : "sequential\/keras_layer\/StatefulPartitionedCall\/StatefulPartitionedCall\/StatefulPartitionedCall\/predict\/MobilenetV2\/expanded_conv_1\/depthwise\/Relu6__relu6_neg__",
      "type" : "activation",
      "name" : "sequential\/keras_layer\/StatefulPartitionedCall\/StatefulPartitionedCall\/StatefulPartitionedCall\/predict\/MobilenetV2\/expanded_conv_1\/depthwise\/Relu6__relu6_neg__",
      "beta" : 0
    },
    {
      "bottom" : "sequential\/keras_layer\/StatefulPartitionedCall\/StatefulPartitionedCall\/StatefulPartitionedCall\/predict\/MobilenetV2\/expanded_conv_1\/depthwise\/Relu6__relu6_neg__",
      "alpha" : -6,
      "operation" : 25,
      "weights" : {

      },
      "fused_relu" : 0,
      "debug_info" : "sequential\/keras_layer\/StatefulPartitionedCall\/StatefulPartitionedCall\/StatefulPartitionedCall\/predict\/MobilenetV2\/expanded_conv_1\/depthwise\/Relu6__relu6_threshold6__",
      "top" : "sequential\/keras_layer\/StatefulPartitionedCall\/StatefulPartitionedCall\/StatefulPartitionedCall\/predict\/MobilenetV2\/expanded_conv_1\/depthwise\/Relu6__relu6_threshold6__",
      "type" : "elementwise",
      "name" : "sequential\/keras_layer\/StatefulPartitionedCall\/StatefulPartitionedCall\/StatefulPartitionedCall\/predict\/MobilenetV2\/expanded_conv_1\/depthwise\/Relu6__relu6_threshold6__",
      "beta" : 0
    },
    {
      "alpha" : -1,
      "bottom" : "sequential\/keras_layer\/StatefulPartitionedCall\/StatefulPartitionedCall\/StatefulPartitionedCall\/predict\/MobilenetV2\/expanded_conv_1\/depthwise\/Relu6__relu6_threshold6__",
      "weights" : {

      },
      "mode" : 6,
      "debug_info" : "sequential\/keras_layer\/StatefulPartitionedCall\/StatefulPartitionedCall\/StatefulPartitionedCall\/predict\/MobilenetV2\/expanded_conv_1\/depthwise\/Relu6",
      "top" : "sequential\/keras_layer\/StatefulPartitionedCall\/StatefulPartitionedCall\/StatefulPartitionedCall\/predict\/MobilenetV2\/expanded_conv_1\/depthwise\/Relu6",
      "type" : "activation",
      "name" : "sequential\/keras_layer\/StatefulPartitionedCall\/StatefulPartitionedCall\/StatefulPartitionedCall\/predict\/MobilenetV2\/expanded_conv_1\/depthwise\/Relu6",
      "beta" : 0
    },
    {
      "pad_r" : 0,
      "fused_relu" : 0,
      "fused_tanh" : 0,
      "debug_info" : "sequential\/keras_layer\/StatefulPartitionedCall\/StatefulPartitionedCall\/StatefulPartitionedCall\/predict\/MobilenetV2\/expanded_conv_1\/project\/BatchNorm\/FusedBatchNorm_nchw",
      "pad_fill_mode" : 0,
      "pad_b" : 0,
      "pad_l" : 0,
      "top" : "sequential\/keras_layer\/StatefulPartitionedCall\/StatefulPartitionedCall\/StatefulPartitionedCall\/predict\/MobilenetV2\/expanded_conv_1\/project\/BatchNorm\/FusedBatchNorm_nchw",
      "blob_weights" : 25,
      "K" : 96,
      "blob_biases" : 23,
      "name" : "sequential\/keras_layer\/StatefulPartitionedCall\/StatefulPartitionedCall\/StatefulPartitionedCall\/predict\/MobilenetV2\/expanded_conv_1\/project\/BatchNorm\/FusedBatchNorm_nchw",
      "has_batch_norm" : 0,
      "type" : "convolution",
      "n_groups" : 1,
      "pad_t" : 0,
      "has_biases" : 1,
      "C" : 24,
      "bottom" : "sequential\/keras_layer\/StatefulPartitionedCall\/StatefulPartitionedCall\/StatefulPartitionedCall\/predict\/MobilenetV2\/expanded_conv_1\/depthwise\/Relu6",
      "weights" : {

      },
      "Nx" : 1,
      "pad_mode" : 1,
      "pad_value" : 0,
      "Ny" : 1,
      "n_parallel" : 1
    },
    {
      "pad_r" : 0,
      "fused_relu" : 1,
      "fused_tanh" : 0,
      "debug_info" : "sequential\/keras_layer\/StatefulPartitionedCall\/StatefulPartitionedCall\/StatefulPartitionedCall\/predict\/MobilenetV2\/expanded_conv_2\/expand\/BatchNorm\/FusedBatchNorm_nchw",
      "pad_fill_mode" : 0,
      "pad_b" : 0,
      "pad_l" : 0,
      "top" : "sequential\/keras_layer\/StatefulPartitionedCall\/StatefulPartitionedCall\/StatefulPartitionedCall\/predict\/MobilenetV2\/expanded_conv_2\/expand\/Relu6__relu6_relu__",
      "blob_weights" : 29,
      "K" : 24,
      "blob_biases" : 27,
      "name" : "sequential\/keras_layer\/StatefulPartitionedCall\/StatefulPartitionedCall\/StatefulPartitionedCall\/predict\/MobilenetV2\/expanded_conv_2\/expand\/BatchNorm\/FusedBatchNorm_nchw",
      "has_batch_norm" : 0,
      "type" : "convolution",
      "n_groups" : 1,
      "pad_t" : 0,
      "has_biases" : 1,
      "C" : 144,
      "bottom" : "sequential\/keras_layer\/StatefulPartitionedCall\/StatefulPartitionedCall\/StatefulPartitionedCall\/predict\/MobilenetV2\/expanded_conv_1\/project\/BatchNorm\/FusedBatchNorm_nchw",
      "weights" : {

      },
      "Nx" : 1,
      "pad_mode" : 1,
      "pad_value" : 0,
      "Ny" : 1,
      "n_parallel" : 1
    },
    {
      "alpha" : -1,
      "bottom" : "sequential\/keras_layer\/StatefulPartitionedCall\/StatefulPartitionedCall\/StatefulPartitionedCall\/predict\/MobilenetV2\/expanded_conv_2\/expand\/Relu6__relu6_relu__",
      "weights" : {

      },
      "mode" : 6,
      "debug_info" : "sequential\/keras_layer\/StatefulPartitionedCall\/StatefulPartitionedCall\/StatefulPartitionedCall\/predict\/MobilenetV2\/expanded_conv_2\/expand\/Relu6__relu6_neg__",
      "top" : "sequential\/keras_layer\/StatefulPartitionedCall\/StatefulPartitionedCall\/StatefulPartitionedCall\/predict\/MobilenetV2\/expanded_conv_2\/expand\/Relu6__relu6_neg__",
      "type" : "activation",
      "name" : "sequential\/keras_layer\/StatefulPartitionedCall\/StatefulPartitionedCall\/StatefulPartitionedCall\/predict\/MobilenetV2\/expanded_conv_2\/expand\/Relu6__relu6_neg__",
      "beta" : 0
    },
    {
      "bottom" : "sequential\/keras_layer\/StatefulPartitionedCall\/StatefulPartitionedCall\/StatefulPartitionedCall\/predict\/MobilenetV2\/expanded_conv_2\/expand\/Relu6__relu6_neg__",
      "alpha" : -6,
      "operation" : 25,
      "weights" : {

      },
      "fused_relu" : 0,
      "debug_info" : "sequential\/keras_layer\/StatefulPartitionedCall\/StatefulPartitionedCall\/StatefulPartitionedCall\/predict\/MobilenetV2\/expanded_conv_2\/expand\/Relu6__relu6_threshold6__",
      "top" : "sequential\/keras_layer\/StatefulPartitionedCall\/StatefulPartitionedCall\/StatefulPartitionedCall\/predict\/MobilenetV2\/expanded_conv_2\/expand\/Relu6__relu6_threshold6__",
      "type" : "elementwise",
      "name" : "sequential\/keras_layer\/StatefulPartitionedCall\/StatefulPartitionedCall\/StatefulPartitionedCall\/predict\/MobilenetV2\/expanded_conv_2\/expand\/Relu6__relu6_threshold6__",
      "beta" : 0
    },
    {
      "alpha" : -1,
      "bottom" : "sequential\/keras_layer\/StatefulPartitionedCall\/StatefulPartitionedCall\/StatefulPartitionedCall\/predict\/MobilenetV2\/expanded_conv_2\/expand\/Relu6__relu6_threshold6__",
      "weights" : {

      },
      "mode" : 6,
      "debug_info" : "sequential\/keras_layer\/StatefulPartitionedCall\/StatefulPartitionedCall\/StatefulPartitionedCall\/predict\/MobilenetV2\/expanded_conv_2\/expand\/Relu6",
      "top" : "sequential\/keras_layer\/StatefulPartitionedCall\/StatefulPartitionedCall\/StatefulPartitionedCall\/predict\/MobilenetV2\/expanded_conv_2\/expand\/Relu6",
      "type" : "activation",
      "name" : "sequential\/keras_layer\/StatefulPartitionedCall\/StatefulPartitionedCall\/StatefulPartitionedCall\/predict\/MobilenetV2\/expanded_conv_2\/expand\/Relu6",
      "beta" : 0
    },
    {
      "pad_r" : 0,
      "fused_relu" : 1,
      "fused_tanh" : 0,
      "debug_info" : "sequential\/keras_layer\/StatefulPartitionedCall\/StatefulPartitionedCall\/StatefulPartitionedCall\/predict\/MobilenetV2\/expanded_conv_2\/depthwise\/BatchNorm\/FusedBatchNorm_nchw",
      "pad_fill_mode" : 0,
      "pad_b" : 0,
      "pad_l" : 0,
      "top" : "sequential\/keras_layer\/StatefulPartitionedCall\/StatefulPartitionedCall\/StatefulPartitionedCall\/predict\/MobilenetV2\/expanded_conv_2\/depthwise\/Relu6__relu6_relu__",
      "blob_weights" : 33,
      "K" : 144,
      "blob_biases" : 31,
      "name" : "sequential\/keras_layer\/StatefulPartitionedCall\/StatefulPartitionedCall\/StatefulPartitionedCall\/predict\/MobilenetV2\/expanded_conv_2\/depthwise\/BatchNorm\/FusedBatchNorm_nchw",
      "has_batch_norm" : 0,
      "type" : "convolution",
      "n_groups" : 144,
      "pad_t" : 0,
      "has_biases" : 1,
      "C" : 144,
      "bottom" : "sequential\/keras_layer\/StatefulPartitionedCall\/StatefulPartitionedCall\/StatefulPartitionedCall\/predict\/MobilenetV2\/expanded_conv_2\/expand\/Relu6",
      "weights" : {

      },
      "Nx" : 3,
      "pad_mode" : 1,
      "pad_value" : 0,
      "Ny" : 3,
      "n_parallel" : 1
    },
    {
      "alpha" : -1,
      "bottom" : "sequential\/keras_layer\/StatefulPartitionedCall\/StatefulPartitionedCall\/StatefulPartitionedCall\/predict\/MobilenetV2\/expanded_conv_2\/depthwise\/Relu6__relu6_relu__",
      "weights" : {

      },
      "mode" : 6,
      "debug_info" : "sequential\/keras_layer\/StatefulPartitionedCall\/StatefulPartitionedCall\/StatefulPartitionedCall\/predict\/MobilenetV2\/expanded_conv_2\/depthwise\/Relu6__relu6_neg__",
      "top" : "sequential\/keras_layer\/StatefulPartitionedCall\/StatefulPartitionedCall\/StatefulPartitionedCall\/predict\/MobilenetV2\/expanded_conv_2\/depthwise\/Relu6__relu6_neg__",
      "type" : "activation",
      "name" : "sequential\/keras_layer\/StatefulPartitionedCall\/StatefulPartitionedCall\/StatefulPartitionedCall\/predict\/MobilenetV2\/expanded_conv_2\/depthwise\/Relu6__relu6_neg__",
      "beta" : 0
    },
    {
      "bottom" : "sequential\/keras_layer\/StatefulPartitionedCall\/StatefulPartitionedCall\/StatefulPartitionedCall\/predict\/MobilenetV2\/expanded_conv_2\/depthwise\/Relu6__relu6_neg__",
      "alpha" : -6,
      "operation" : 25,
      "weights" : {

      },
      "fused_relu" : 0,
      "debug_info" : "sequential\/keras_layer\/StatefulPartitionedCall\/StatefulPartitionedCall\/StatefulPartitionedCall\/predict\/MobilenetV2\/expanded_conv_2\/depthwise\/Relu6__relu6_threshold6__",
      "top" : "sequential\/keras_layer\/StatefulPartitionedCall\/StatefulPartitionedCall\/StatefulPartitionedCall\/predict\/MobilenetV2\/expanded_conv_2\/depthwise\/Relu6__relu6_threshold6__",
      "type" : "elementwise",
      "name" : "sequential\/keras_layer\/StatefulPartitionedCall\/StatefulPartitionedCall\/StatefulPartitionedCall\/predict\/MobilenetV2\/expanded_conv_2\/depthwise\/Relu6__relu6_threshold6__",
      "beta" : 0
    },
    {
      "alpha" : -1,
      "bottom" : "sequential\/keras_layer\/StatefulPartitionedCall\/StatefulPartitionedCall\/StatefulPartitionedCall\/predict\/MobilenetV2\/expanded_conv_2\/depthwise\/Relu6__relu6_threshold6__",
      "weights" : {

      },
      "mode" : 6,
      "debug_info" : "sequential\/keras_layer\/StatefulPartitionedCall\/StatefulPartitionedCall\/StatefulPartitionedCall\/predict\/MobilenetV2\/expanded_conv_2\/depthwise\/Relu6",
      "top" : "sequential\/keras_layer\/StatefulPartitionedCall\/StatefulPartitionedCall\/StatefulPartitionedCall\/predict\/MobilenetV2\/expanded_conv_2\/depthwise\/Relu6",
      "type" : "activation",
      "name" : "sequential\/keras_layer\/StatefulPartitionedCall\/StatefulPartitionedCall\/StatefulPartitionedCall\/predict\/MobilenetV2\/expanded_conv_2\/depthwise\/Relu6",
      "beta" : 0
    },
    {
      "pad_r" : 0,
      "fused_relu" : 0,
      "fused_tanh" : 0,
      "debug_info" : "sequential\/keras_layer\/StatefulPartitionedCall\/StatefulPartitionedCall\/StatefulPartitionedCall\/predict\/MobilenetV2\/expanded_conv_2\/project\/BatchNorm\/FusedBatchNorm_nchw",
      "pad_fill_mode" : 0,
      "pad_b" : 0,
      "pad_l" : 0,
      "top" : "sequential\/keras_layer\/StatefulPartitionedCall\/StatefulPartitionedCall\/StatefulPartitionedCall\/predict\/MobilenetV2\/expanded_conv_2\/project\/BatchNorm\/FusedBatchNorm_nchw",
      "blob_weights" : 37,
      "K" : 144,
      "blob_biases" : 35,
      "name" : "sequential\/keras_layer\/StatefulPartitionedCall\/StatefulPartitionedCall\/StatefulPartitionedCall\/predict\/MobilenetV2\/expanded_conv_2\/project\/BatchNorm\/FusedBatchNorm_nchw",
      "has_batch_norm" : 0,
      "type" : "convolution",
      "n_groups" : 1,
      "pad_t" : 0,
      "has_biases" : 1,
      "C" : 24,
      "bottom" : "sequential\/keras_layer\/StatefulPartitionedCall\/StatefulPartitionedCall\/StatefulPartitionedCall\/predict\/MobilenetV2\/expanded_conv_2\/depthwise\/Relu6",
      "weights" : {

      },
      "Nx" : 1,
      "pad_mode" : 1,
      "pad_value" : 0,
      "Ny" : 1,
      "n_parallel" : 1
    },
    {
      "bottom" : "sequential\/keras_layer\/StatefulPartitionedCall\/StatefulPartitionedCall\/StatefulPartitionedCall\/predict\/MobilenetV2\/expanded_conv_2\/project\/BatchNorm\/FusedBatchNorm_nchw,sequential\/keras_layer\/StatefulPartitionedCall\/StatefulPartitionedCall\/StatefulPartitionedCall\/predict\/MobilenetV2\/expanded_conv_1\/project\/BatchNorm\/FusedBatchNorm_nchw",
      "alpha" : 1,
      "operation" : 0,
      "weights" : {

      },
      "fused_relu" : 0,
      "debug_info" : "sequential\/keras_layer\/StatefulPartitionedCall\/StatefulPartitionedCall\/StatefulPartitionedCall\/predict\/MobilenetV2\/expanded_conv_2\/add",
      "top" : "sequential\/keras_layer\/StatefulPartitionedCall\/StatefulPartitionedCall\/StatefulPartitionedCall\/predict\/MobilenetV2\/expanded_conv_2\/add",
      "type" : "elementwise",
      "name" : "sequential\/keras_layer\/StatefulPartitionedCall\/StatefulPartitionedCall\/StatefulPartitionedCall\/predict\/MobilenetV2\/expanded_conv_2\/add",
      "beta" : 0
    },
    {
      "pad_r" : 0,
      "fused_relu" : 1,
      "fused_tanh" : 0,
      "debug_info" : "sequential\/keras_layer\/StatefulPartitionedCall\/StatefulPartitionedCall\/StatefulPartitionedCall\/predict\/MobilenetV2\/expanded_conv_3\/expand\/BatchNorm\/FusedBatchNorm_nchw",
      "pad_fill_mode" : 0,
      "pad_b" : 0,
      "pad_l" : 0,
      "top" : "sequential\/keras_layer\/StatefulPartitionedCall\/StatefulPartitionedCall\/StatefulPartitionedCall\/predict\/MobilenetV2\/expanded_conv_3\/expand\/Relu6__relu6_relu__",
      "blob_weights" : 41,
      "K" : 24,
      "blob_biases" : 39,
      "name" : "sequential\/keras_layer\/StatefulPartitionedCall\/StatefulPartitionedCall\/StatefulPartitionedCall\/predict\/MobilenetV2\/expanded_conv_3\/expand\/BatchNorm\/FusedBatchNorm_nchw",
      "has_batch_norm" : 0,
      "type" : "convolution",
      "n_groups" : 1,
      "pad_t" : 0,
      "has_biases" : 1,
      "C" : 144,
      "bottom" : "sequential\/keras_layer\/StatefulPartitionedCall\/StatefulPartitionedCall\/StatefulPartitionedCall\/predict\/MobilenetV2\/expanded_conv_2\/add",
      "weights" : {

      },
      "Nx" : 1,
      "pad_mode" : 1,
      "pad_value" : 0,
      "Ny" : 1,
      "n_parallel" : 1
    },
    {
      "alpha" : -1,
      "bottom" : "sequential\/keras_layer\/StatefulPartitionedCall\/StatefulPartitionedCall\/StatefulPartitionedCall\/predict\/MobilenetV2\/expanded_conv_3\/expand\/Relu6__relu6_relu__",
      "weights" : {

      },
      "mode" : 6,
      "debug_info" : "sequential\/keras_layer\/StatefulPartitionedCall\/StatefulPartitionedCall\/StatefulPartitionedCall\/predict\/MobilenetV2\/expanded_conv_3\/expand\/Relu6__relu6_neg__",
      "top" : "sequential\/keras_layer\/StatefulPartitionedCall\/StatefulPartitionedCall\/StatefulPartitionedCall\/predict\/MobilenetV2\/expanded_conv_3\/expand\/Relu6__relu6_neg__",
      "type" : "activation",
      "name" : "sequential\/keras_layer\/StatefulPartitionedCall\/StatefulPartitionedCall\/StatefulPartitionedCall\/predict\/MobilenetV2\/expanded_conv_3\/expand\/Relu6__relu6_neg__",
      "beta" : 0
    },
    {
      "bottom" : "sequential\/keras_layer\/StatefulPartitionedCall\/StatefulPartitionedCall\/StatefulPartitionedCall\/predict\/MobilenetV2\/expanded_conv_3\/expand\/Relu6__relu6_neg__",
      "alpha" : -6,
      "operation" : 25,
      "weights" : {

      },
      "fused_relu" : 0,
      "debug_info" : "sequential\/keras_layer\/StatefulPartitionedCall\/StatefulPartitionedCall\/StatefulPartitionedCall\/predict\/MobilenetV2\/expanded_conv_3\/expand\/Relu6__relu6_threshold6__",
      "top" : "sequential\/keras_layer\/StatefulPartitionedCall\/StatefulPartitionedCall\/StatefulPartitionedCall\/predict\/MobilenetV2\/expanded_conv_3\/expand\/Relu6__relu6_threshold6__",
      "type" : "elementwise",
      "name" : "sequential\/keras_layer\/StatefulPartitionedCall\/StatefulPartitionedCall\/StatefulPartitionedCall\/predict\/MobilenetV2\/expanded_conv_3\/expand\/Relu6__relu6_threshold6__",
      "beta" : 0
    },
    {
      "alpha" : -1,
      "bottom" : "sequential\/keras_layer\/StatefulPartitionedCall\/StatefulPartitionedCall\/StatefulPartitionedCall\/predict\/MobilenetV2\/expanded_conv_3\/expand\/Relu6__relu6_threshold6__",
      "weights" : {

      },
      "mode" : 6,
      "debug_info" : "sequential\/keras_layer\/StatefulPartitionedCall\/StatefulPartitionedCall\/StatefulPartitionedCall\/predict\/MobilenetV2\/expanded_conv_3\/expand\/Relu6",
      "top" : "sequential\/keras_layer\/StatefulPartitionedCall\/StatefulPartitionedCall\/StatefulPartitionedCall\/predict\/MobilenetV2\/expanded_conv_3\/expand\/Relu6",
      "type" : "activation",
      "name" : "sequential\/keras_layer\/StatefulPartitionedCall\/StatefulPartitionedCall\/StatefulPartitionedCall\/predict\/MobilenetV2\/expanded_conv_3\/expand\/Relu6",
      "beta" : 0
    },
    {
      "pad_r" : 0,
      "fused_relu" : 1,
      "fused_tanh" : 0,
      "debug_info" : "sequential\/keras_layer\/StatefulPartitionedCall\/StatefulPartitionedCall\/StatefulPartitionedCall\/predict\/MobilenetV2\/expanded_conv_3\/depthwise\/BatchNorm\/FusedBatchNorm_nchw",
      "pad_fill_mode" : 0,
      "pad_b" : 0,
      "pad_l" : 0,
      "top" : "sequential\/keras_layer\/StatefulPartitionedCall\/StatefulPartitionedCall\/StatefulPartitionedCall\/predict\/MobilenetV2\/expanded_conv_3\/depthwise\/Relu6__relu6_relu__",
      "blob_weights" : 45,
      "K" : 144,
      "blob_biases" : 43,
      "stride_x" : 2,
      "name" : "sequential\/keras_layer\/StatefulPartitionedCall\/StatefulPartitionedCall\/StatefulPartitionedCall\/predict\/MobilenetV2\/expanded_conv_3\/depthwise\/BatchNorm\/FusedBatchNorm_nchw",
      "has_batch_norm" : 0,
      "type" : "convolution",
      "n_groups" : 144,
      "pad_t" : 0,
      "stride_y" : 2,
      "has_biases" : 1,
      "C" : 144,
      "bottom" : "sequential\/keras_layer\/StatefulPartitionedCall\/StatefulPartitionedCall\/StatefulPartitionedCall\/predict\/MobilenetV2\/expanded_conv_3\/expand\/Relu6",
      "weights" : {

      },
      "Nx" : 3,
      "pad_mode" : 1,
      "pad_value" : 0,
      "Ny" : 3,
      "n_parallel" : 1
    },
    {
      "alpha" : -1,
      "bottom" : "sequential\/keras_layer\/StatefulPartitionedCall\/StatefulPartitionedCall\/StatefulPartitionedCall\/predict\/MobilenetV2\/expanded_conv_3\/depthwise\/Relu6__relu6_relu__",
      "weights" : {

      },
      "mode" : 6,
      "debug_info" : "sequential\/keras_layer\/StatefulPartitionedCall\/StatefulPartitionedCall\/StatefulPartitionedCall\/predict\/MobilenetV2\/expanded_conv_3\/depthwise\/Relu6__relu6_neg__",
      "top" : "sequential\/keras_layer\/StatefulPartitionedCall\/StatefulPartitionedCall\/StatefulPartitionedCall\/predict\/MobilenetV2\/expanded_conv_3\/depthwise\/Relu6__relu6_neg__",
      "type" : "activation",
      "name" : "sequential\/keras_layer\/StatefulPartitionedCall\/StatefulPartitionedCall\/StatefulPartitionedCall\/predict\/MobilenetV2\/expanded_conv_3\/depthwise\/Relu6__relu6_neg__",
      "beta" : 0
    },
    {
      "bottom" : "sequential\/keras_layer\/StatefulPartitionedCall\/StatefulPartitionedCall\/StatefulPartitionedCall\/predict\/MobilenetV2\/expanded_conv_3\/depthwise\/Relu6__relu6_neg__",
      "alpha" : -6,
      "operation" : 25,
      "weights" : {

      },
      "fused_relu" : 0,
      "debug_info" : "sequential\/keras_layer\/StatefulPartitionedCall\/StatefulPartitionedCall\/StatefulPartitionedCall\/predict\/MobilenetV2\/expanded_conv_3\/depthwise\/Relu6__relu6_threshold6__",
      "top" : "sequential\/keras_layer\/StatefulPartitionedCall\/StatefulPartitionedCall\/StatefulPartitionedCall\/predict\/MobilenetV2\/expanded_conv_3\/depthwise\/Relu6__relu6_threshold6__",
      "type" : "elementwise",
      "name" : "sequential\/keras_layer\/StatefulPartitionedCall\/StatefulPartitionedCall\/StatefulPartitionedCall\/predict\/MobilenetV2\/expanded_conv_3\/depthwise\/Relu6__relu6_threshold6__",
      "beta" : 0
    },
    {
      "alpha" : -1,
      "bottom" : "sequential\/keras_layer\/StatefulPartitionedCall\/StatefulPartitionedCall\/StatefulPartitionedCall\/predict\/MobilenetV2\/expanded_conv_3\/depthwise\/Relu6__relu6_threshold6__",
      "weights" : {

      },
      "mode" : 6,
      "debug_info" : "sequential\/keras_layer\/StatefulPartitionedCall\/StatefulPartitionedCall\/StatefulPartitionedCall\/predict\/MobilenetV2\/expanded_conv_3\/depthwise\/Relu6",
      "top" : "sequential\/keras_layer\/StatefulPartitionedCall\/StatefulPartitionedCall\/StatefulPartitionedCall\/predict\/MobilenetV2\/expanded_conv_3\/depthwise\/Relu6",
      "type" : "activation",
      "name" : "sequential\/keras_layer\/StatefulPartitionedCall\/StatefulPartitionedCall\/StatefulPartitionedCall\/predict\/MobilenetV2\/expanded_conv_3\/depthwise\/Relu6",
      "beta" : 0
    },
    {
      "pad_r" : 0,
      "fused_relu" : 0,
      "fused_tanh" : 0,
      "debug_info" : "sequential\/keras_layer\/StatefulPartitionedCall\/StatefulPartitionedCall\/StatefulPartitionedCall\/predict\/MobilenetV2\/expanded_conv_3\/project\/BatchNorm\/FusedBatchNorm_nchw",
      "pad_fill_mode" : 0,
      "pad_b" : 0,
      "pad_l" : 0,
      "top" : "sequential\/keras_layer\/StatefulPartitionedCall\/StatefulPartitionedCall\/StatefulPartitionedCall\/predict\/MobilenetV2\/expanded_conv_3\/project\/BatchNorm\/FusedBatchNorm_nchw",
      "blob_weights" : 49,
      "K" : 144,
      "blob_biases" : 47,
      "name" : "sequential\/keras_layer\/StatefulPartitionedCall\/StatefulPartitionedCall\/StatefulPartitionedCall\/predict\/MobilenetV2\/expanded_conv_3\/project\/BatchNorm\/FusedBatchNorm_nchw",
      "has_batch_norm" : 0,
      "type" : "convolution",
      "n_groups" : 1,
      "pad_t" : 0,
      "has_biases" : 1,
      "C" : 32,
      "bottom" : "sequential\/keras_layer\/StatefulPartitionedCall\/StatefulPartitionedCall\/StatefulPartitionedCall\/predict\/MobilenetV2\/expanded_conv_3\/depthwise\/Relu6",
      "weights" : {

      },
      "Nx" : 1,
      "pad_mode" : 1,
      "pad_value" : 0,
      "Ny" : 1,
      "n_parallel" : 1
    },
    {
      "pad_r" : 0,
      "fused_relu" : 1,
      "fused_tanh" : 0,
      "debug_info" : "sequential\/keras_layer\/StatefulPartitionedCall\/StatefulPartitionedCall\/StatefulPartitionedCall\/predict\/MobilenetV2\/expanded_conv_4\/expand\/BatchNorm\/FusedBatchNorm_nchw",
      "pad_fill_mode" : 0,
      "pad_b" : 0,
      "pad_l" : 0,
      "top" : "sequential\/keras_layer\/StatefulPartitionedCall\/StatefulPartitionedCall\/StatefulPartitionedCall\/predict\/MobilenetV2\/expanded_conv_4\/expand\/Relu6__relu6_relu__",
      "blob_weights" : 53,
      "K" : 32,
      "blob_biases" : 51,
      "name" : "sequential\/keras_layer\/StatefulPartitionedCall\/StatefulPartitionedCall\/StatefulPartitionedCall\/predict\/MobilenetV2\/expanded_conv_4\/expand\/BatchNorm\/FusedBatchNorm_nchw",
      "has_batch_norm" : 0,
      "type" : "convolution",
      "n_groups" : 1,
      "pad_t" : 0,
      "has_biases" : 1,
      "C" : 192,
      "bottom" : "sequential\/keras_layer\/StatefulPartitionedCall\/StatefulPartitionedCall\/StatefulPartitionedCall\/predict\/MobilenetV2\/expanded_conv_3\/project\/BatchNorm\/FusedBatchNorm_nchw",
      "weights" : {

      },
      "Nx" : 1,
      "pad_mode" : 1,
      "pad_value" : 0,
      "Ny" : 1,
      "n_parallel" : 1
    },
    {
      "alpha" : -1,
      "bottom" : "sequential\/keras_layer\/StatefulPartitionedCall\/StatefulPartitionedCall\/StatefulPartitionedCall\/predict\/MobilenetV2\/expanded_conv_4\/expand\/Relu6__relu6_relu__",
      "weights" : {

      },
      "mode" : 6,
      "debug_info" : "sequential\/keras_layer\/StatefulPartitionedCall\/StatefulPartitionedCall\/StatefulPartitionedCall\/predict\/MobilenetV2\/expanded_conv_4\/expand\/Relu6__relu6_neg__",
      "top" : "sequential\/keras_layer\/StatefulPartitionedCall\/StatefulPartitionedCall\/StatefulPartitionedCall\/predict\/MobilenetV2\/expanded_conv_4\/expand\/Relu6__relu6_neg__",
      "type" : "activation",
      "name" : "sequential\/keras_layer\/StatefulPartitionedCall\/StatefulPartitionedCall\/StatefulPartitionedCall\/predict\/MobilenetV2\/expanded_conv_4\/expand\/Relu6__relu6_neg__",
      "beta" : 0
    },
    {
      "bottom" : "sequential\/keras_layer\/StatefulPartitionedCall\/StatefulPartitionedCall\/StatefulPartitionedCall\/predict\/MobilenetV2\/expanded_conv_4\/expand\/Relu6__relu6_neg__",
      "alpha" : -6,
      "operation" : 25,
      "weights" : {

      },
      "fused_relu" : 0,
      "debug_info" : "sequential\/keras_layer\/StatefulPartitionedCall\/StatefulPartitionedCall\/StatefulPartitionedCall\/predict\/MobilenetV2\/expanded_conv_4\/expand\/Relu6__relu6_threshold6__",
      "top" : "sequential\/keras_layer\/StatefulPartitionedCall\/StatefulPartitionedCall\/StatefulPartitionedCall\/predict\/MobilenetV2\/expanded_conv_4\/expand\/Relu6__relu6_threshold6__",
      "type" : "elementwise",
      "name" : "sequential\/keras_layer\/StatefulPartitionedCall\/StatefulPartitionedCall\/StatefulPartitionedCall\/predict\/MobilenetV2\/expanded_conv_4\/expand\/Relu6__relu6_threshold6__",
      "beta" : 0
    },
    {
      "alpha" : -1,
      "bottom" : "sequential\/keras_layer\/StatefulPartitionedCall\/StatefulPartitionedCall\/StatefulPartitionedCall\/predict\/MobilenetV2\/expanded_conv_4\/expand\/Relu6__relu6_threshold6__",
      "weights" : {

      },
      "mode" : 6,
      "debug_info" : "sequential\/keras_layer\/StatefulPartitionedCall\/StatefulPartitionedCall\/StatefulPartitionedCall\/predict\/MobilenetV2\/expanded_conv_4\/expand\/Relu6",
      "top" : "sequential\/keras_layer\/StatefulPartitionedCall\/StatefulPartitionedCall\/StatefulPartitionedCall\/predict\/MobilenetV2\/expanded_conv_4\/expand\/Relu6",
      "type" : "activation",
      "name" : "sequential\/keras_layer\/StatefulPartitionedCall\/StatefulPartitionedCall\/StatefulPartitionedCall\/predict\/MobilenetV2\/expanded_conv_4\/expand\/Relu6",
      "beta" : 0
    },
    {
      "pad_r" : 0,
      "fused_relu" : 1,
      "fused_tanh" : 0,
      "debug_info" : "sequential\/keras_layer\/StatefulPartitionedCall\/StatefulPartitionedCall\/StatefulPartitionedCall\/predict\/MobilenetV2\/expanded_conv_4\/depthwise\/BatchNorm\/FusedBatchNorm_nchw",
      "pad_fill_mode" : 0,
      "pad_b" : 0,
      "pad_l" : 0,
      "top" : "sequential\/keras_layer\/StatefulPartitionedCall\/StatefulPartitionedCall\/StatefulPartitionedCall\/predict\/MobilenetV2\/expanded_conv_4\/depthwise\/Relu6__relu6_relu__",
      "blob_weights" : 57,
      "K" : 192,
      "blob_biases" : 55,
      "name" : "sequential\/keras_layer\/StatefulPartitionedCall\/StatefulPartitionedCall\/StatefulPartitionedCall\/predict\/MobilenetV2\/expanded_conv_4\/depthwise\/BatchNorm\/FusedBatchNorm_nchw",
      "has_batch_norm" : 0,
      "type" : "convolution",
      "n_groups" : 192,
      "pad_t" : 0,
      "has_biases" : 1,
      "C" : 192,
      "bottom" : "sequential\/keras_layer\/StatefulPartitionedCall\/StatefulPartitionedCall\/StatefulPartitionedCall\/predict\/MobilenetV2\/expanded_conv_4\/expand\/Relu6",
      "weights" : {

      },
      "Nx" : 3,
      "pad_mode" : 1,
      "pad_value" : 0,
      "Ny" : 3,
      "n_parallel" : 1
    },
    {
      "alpha" : -1,
      "bottom" : "sequential\/keras_layer\/StatefulPartitionedCall\/StatefulPartitionedCall\/StatefulPartitionedCall\/predict\/MobilenetV2\/expanded_conv_4\/depthwise\/Relu6__relu6_relu__",
      "weights" : {

      },
      "mode" : 6,
      "debug_info" : "sequential\/keras_layer\/StatefulPartitionedCall\/StatefulPartitionedCall\/StatefulPartitionedCall\/predict\/MobilenetV2\/expanded_conv_4\/depthwise\/Relu6__relu6_neg__",
      "top" : "sequential\/keras_layer\/StatefulPartitionedCall\/StatefulPartitionedCall\/StatefulPartitionedCall\/predict\/MobilenetV2\/expanded_conv_4\/depthwise\/Relu6__relu6_neg__",
      "type" : "activation",
      "name" : "sequential\/keras_layer\/StatefulPartitionedCall\/StatefulPartitionedCall\/StatefulPartitionedCall\/predict\/MobilenetV2\/expanded_conv_4\/depthwise\/Relu6__relu6_neg__",
      "beta" : 0
    },
    {
      "bottom" : "sequential\/keras_layer\/StatefulPartitionedCall\/StatefulPartitionedCall\/StatefulPartitionedCall\/predict\/MobilenetV2\/expanded_conv_4\/depthwise\/Relu6__relu6_neg__",
      "alpha" : -6,
      "operation" : 25,
      "weights" : {

      },
      "fused_relu" : 0,
      "debug_info" : "sequential\/keras_layer\/StatefulPartitionedCall\/StatefulPartitionedCall\/StatefulPartitionedCall\/predict\/MobilenetV2\/expanded_conv_4\/depthwise\/Relu6__relu6_threshold6__",
      "top" : "sequential\/keras_layer\/StatefulPartitionedCall\/StatefulPartitionedCall\/StatefulPartitionedCall\/predict\/MobilenetV2\/expanded_conv_4\/depthwise\/Relu6__relu6_threshold6__",
      "type" : "elementwise",
      "name" : "sequential\/keras_layer\/StatefulPartitionedCall\/StatefulPartitionedCall\/StatefulPartitionedCall\/predict\/MobilenetV2\/expanded_conv_4\/depthwise\/Relu6__relu6_threshold6__",
      "beta" : 0
    },
    {
      "alpha" : -1,
      "bottom" : "sequential\/keras_layer\/StatefulPartitionedCall\/StatefulPartitionedCall\/StatefulPartitionedCall\/predict\/MobilenetV2\/expanded_conv_4\/depthwise\/Relu6__relu6_threshold6__",
      "weights" : {

      },
      "mode" : 6,
      "debug_info" : "sequential\/keras_layer\/StatefulPartitionedCall\/StatefulPartitionedCall\/StatefulPartitionedCall\/predict\/MobilenetV2\/expanded_conv_4\/depthwise\/Relu6",
      "top" : "sequential\/keras_layer\/StatefulPartitionedCall\/StatefulPartitionedCall\/StatefulPartitionedCall\/predict\/MobilenetV2\/expanded_conv_4\/depthwise\/Relu6",
      "type" : "activation",
      "name" : "sequential\/keras_layer\/StatefulPartitionedCall\/StatefulPartitionedCall\/StatefulPartitionedCall\/predict\/MobilenetV2\/expanded_conv_4\/depthwise\/Relu6",
      "beta" : 0
    },
    {
      "pad_r" : 0,
      "fused_relu" : 0,
      "fused_tanh" : 0,
      "debug_info" : "sequential\/keras_layer\/StatefulPartitionedCall\/StatefulPartitionedCall\/StatefulPartitionedCall\/predict\/MobilenetV2\/expanded_conv_4\/project\/BatchNorm\/FusedBatchNorm_nchw",
      "pad_fill_mode" : 0,
      "pad_b" : 0,
      "pad_l" : 0,
      "top" : "sequential\/keras_layer\/StatefulPartitionedCall\/StatefulPartitionedCall\/StatefulPartitionedCall\/predict\/MobilenetV2\/expanded_conv_4\/project\/BatchNorm\/FusedBatchNorm_nchw",
      "blob_weights" : 61,
      "K" : 192,
      "blob_biases" : 59,
      "name" : "sequential\/keras_layer\/StatefulPartitionedCall\/StatefulPartitionedCall\/StatefulPartitionedCall\/predict\/MobilenetV2\/expanded_conv_4\/project\/BatchNorm\/FusedBatchNorm_nchw",
      "has_batch_norm" : 0,
      "type" : "convolution",
      "n_groups" : 1,
      "pad_t" : 0,
      "has_biases" : 1,
      "C" : 32,
      "bottom" : "sequential\/keras_layer\/StatefulPartitionedCall\/StatefulPartitionedCall\/StatefulPartitionedCall\/predict\/MobilenetV2\/expanded_conv_4\/depthwise\/Relu6",
      "weights" : {

      },
      "Nx" : 1,
      "pad_mode" : 1,
      "pad_value" : 0,
      "Ny" : 1,
      "n_parallel" : 1
    },
    {
      "bottom" : "sequential\/keras_layer\/StatefulPartitionedCall\/StatefulPartitionedCall\/StatefulPartitionedCall\/predict\/MobilenetV2\/expanded_conv_4\/project\/BatchNorm\/FusedBatchNorm_nchw,sequential\/keras_layer\/StatefulPartitionedCall\/StatefulPartitionedCall\/StatefulPartitionedCall\/predict\/MobilenetV2\/expanded_conv_3\/project\/BatchNorm\/FusedBatchNorm_nchw",
      "alpha" : 1,
      "operation" : 0,
      "weights" : {

      },
      "fused_relu" : 0,
      "debug_info" : "sequential\/keras_layer\/StatefulPartitionedCall\/StatefulPartitionedCall\/StatefulPartitionedCall\/predict\/MobilenetV2\/expanded_conv_4\/add",
      "top" : "sequential\/keras_layer\/StatefulPartitionedCall\/StatefulPartitionedCall\/StatefulPartitionedCall\/predict\/MobilenetV2\/expanded_conv_4\/add",
      "type" : "elementwise",
      "name" : "sequential\/keras_layer\/StatefulPartitionedCall\/StatefulPartitionedCall\/StatefulPartitionedCall\/predict\/MobilenetV2\/expanded_conv_4\/add",
      "beta" : 0
    },
    {
      "pad_r" : 0,
      "fused_relu" : 1,
      "fused_tanh" : 0,
      "debug_info" : "sequential\/keras_layer\/StatefulPartitionedCall\/StatefulPartitionedCall\/StatefulPartitionedCall\/predict\/MobilenetV2\/expanded_conv_5\/expand\/BatchNorm\/FusedBatchNorm_nchw",
      "pad_fill_mode" : 0,
      "pad_b" : 0,
      "pad_l" : 0,
      "top" : "sequential\/keras_layer\/StatefulPartitionedCall\/StatefulPartitionedCall\/StatefulPartitionedCall\/predict\/MobilenetV2\/expanded_conv_5\/expand\/Relu6__relu6_relu__",
      "blob_weights" : 65,
      "K" : 32,
      "blob_biases" : 63,
      "name" : "sequential\/keras_layer\/StatefulPartitionedCall\/StatefulPartitionedCall\/StatefulPartitionedCall\/predict\/MobilenetV2\/expanded_conv_5\/expand\/BatchNorm\/FusedBatchNorm_nchw",
      "has_batch_norm" : 0,
      "type" : "convolution",
      "n_groups" : 1,
      "pad_t" : 0,
      "has_biases" : 1,
      "C" : 192,
      "bottom" : "sequential\/keras_layer\/StatefulPartitionedCall\/StatefulPartitionedCall\/StatefulPartitionedCall\/predict\/MobilenetV2\/expanded_conv_4\/add",
      "weights" : {

      },
      "Nx" : 1,
      "pad_mode" : 1,
      "pad_value" : 0,
      "Ny" : 1,
      "n_parallel" : 1
    },
    {
      "alpha" : -1,
      "bottom" : "sequential\/keras_layer\/StatefulPartitionedCall\/StatefulPartitionedCall\/StatefulPartitionedCall\/predict\/MobilenetV2\/expanded_conv_5\/expand\/Relu6__relu6_relu__",
      "weights" : {

      },
      "mode" : 6,
      "debug_info" : "sequential\/keras_layer\/StatefulPartitionedCall\/StatefulPartitionedCall\/StatefulPartitionedCall\/predict\/MobilenetV2\/expanded_conv_5\/expand\/Relu6__relu6_neg__",
      "top" : "sequential\/keras_layer\/StatefulPartitionedCall\/StatefulPartitionedCall\/StatefulPartitionedCall\/predict\/MobilenetV2\/expanded_conv_5\/expand\/Relu6__relu6_neg__",
      "type" : "activation",
      "name" : "sequential\/keras_layer\/StatefulPartitionedCall\/StatefulPartitionedCall\/StatefulPartitionedCall\/predict\/MobilenetV2\/expanded_conv_5\/expand\/Relu6__relu6_neg__",
      "beta" : 0
    },
    {
      "bottom" : "sequential\/keras_layer\/StatefulPartitionedCall\/StatefulPartitionedCall\/StatefulPartitionedCall\/predict\/MobilenetV2\/expanded_conv_5\/expand\/Relu6__relu6_neg__",
      "alpha" : -6,
      "operation" : 25,
      "weights" : {

      },
      "fused_relu" : 0,
      "debug_info" : "sequential\/keras_layer\/StatefulPartitionedCall\/StatefulPartitionedCall\/StatefulPartitionedCall\/predict\/MobilenetV2\/expanded_conv_5\/expand\/Relu6__relu6_threshold6__",
      "top" : "sequential\/keras_layer\/StatefulPartitionedCall\/StatefulPartitionedCall\/StatefulPartitionedCall\/predict\/MobilenetV2\/expanded_conv_5\/expand\/Relu6__relu6_threshold6__",
      "type" : "elementwise",
      "name" : "sequential\/keras_layer\/StatefulPartitionedCall\/StatefulPartitionedCall\/StatefulPartitionedCall\/predict\/MobilenetV2\/expanded_conv_5\/expand\/Relu6__relu6_threshold6__",
      "beta" : 0
    },
    {
      "alpha" : -1,
      "bottom" : "sequential\/keras_layer\/StatefulPartitionedCall\/StatefulPartitionedCall\/StatefulPartitionedCall\/predict\/MobilenetV2\/expanded_conv_5\/expand\/Relu6__relu6_threshold6__",
      "weights" : {

      },
      "mode" : 6,
      "debug_info" : "sequential\/keras_layer\/StatefulPartitionedCall\/StatefulPartitionedCall\/StatefulPartitionedCall\/predict\/MobilenetV2\/expanded_conv_5\/expand\/Relu6",
      "top" : "sequential\/keras_layer\/StatefulPartitionedCall\/StatefulPartitionedCall\/StatefulPartitionedCall\/predict\/MobilenetV2\/expanded_conv_5\/expand\/Relu6",
      "type" : "activation",
      "name" : "sequential\/keras_layer\/StatefulPartitionedCall\/StatefulPartitionedCall\/StatefulPartitionedCall\/predict\/MobilenetV2\/expanded_conv_5\/expand\/Relu6",
      "beta" : 0
    },
    {
      "pad_r" : 0,
      "fused_relu" : 1,
      "fused_tanh" : 0,
      "debug_info" : "sequential\/keras_layer\/StatefulPartitionedCall\/StatefulPartitionedCall\/StatefulPartitionedCall\/predict\/MobilenetV2\/expanded_conv_5\/depthwise\/BatchNorm\/FusedBatchNorm_nchw",
      "pad_fill_mode" : 0,
      "pad_b" : 0,
      "pad_l" : 0,
      "top" : "sequential\/keras_layer\/StatefulPartitionedCall\/StatefulPartitionedCall\/StatefulPartitionedCall\/predict\/MobilenetV2\/expanded_conv_5\/depthwise\/Relu6__relu6_relu__",
      "blob_weights" : 69,
      "K" : 192,
      "blob_biases" : 67,
      "name" : "sequential\/keras_layer\/StatefulPartitionedCall\/StatefulPartitionedCall\/StatefulPartitionedCall\/predict\/MobilenetV2\/expanded_conv_5\/depthwise\/BatchNorm\/FusedBatchNorm_nchw",
      "has_batch_norm" : 0,
      "type" : "convolution",
      "n_groups" : 192,
      "pad_t" : 0,
      "has_biases" : 1,
      "C" : 192,
      "bottom" : "sequential\/keras_layer\/StatefulPartitionedCall\/StatefulPartitionedCall\/StatefulPartitionedCall\/predict\/MobilenetV2\/expanded_conv_5\/expand\/Relu6",
      "weights" : {

      },
      "Nx" : 3,
      "pad_mode" : 1,
      "pad_value" : 0,
      "Ny" : 3,
      "n_parallel" : 1
    },
    {
      "alpha" : -1,
      "bottom" : "sequential\/keras_layer\/StatefulPartitionedCall\/StatefulPartitionedCall\/StatefulPartitionedCall\/predict\/MobilenetV2\/expanded_conv_5\/depthwise\/Relu6__relu6_relu__",
      "weights" : {

      },
      "mode" : 6,
      "debug_info" : "sequential\/keras_layer\/StatefulPartitionedCall\/StatefulPartitionedCall\/StatefulPartitionedCall\/predict\/MobilenetV2\/expanded_conv_5\/depthwise\/Relu6__relu6_neg__",
      "top" : "sequential\/keras_layer\/StatefulPartitionedCall\/StatefulPartitionedCall\/StatefulPartitionedCall\/predict\/MobilenetV2\/expanded_conv_5\/depthwise\/Relu6__relu6_neg__",
      "type" : "activation",
      "name" : "sequential\/keras_layer\/StatefulPartitionedCall\/StatefulPartitionedCall\/StatefulPartitionedCall\/predict\/MobilenetV2\/expanded_conv_5\/depthwise\/Relu6__relu6_neg__",
      "beta" : 0
    },
    {
      "bottom" : "sequential\/keras_layer\/StatefulPartitionedCall\/StatefulPartitionedCall\/StatefulPartitionedCall\/predict\/MobilenetV2\/expanded_conv_5\/depthwise\/Relu6__relu6_neg__",
      "alpha" : -6,
      "operation" : 25,
      "weights" : {

      },
      "fused_relu" : 0,
      "debug_info" : "sequential\/keras_layer\/StatefulPartitionedCall\/StatefulPartitionedCall\/StatefulPartitionedCall\/predict\/MobilenetV2\/expanded_conv_5\/depthwise\/Relu6__relu6_threshold6__",
      "top" : "sequential\/keras_layer\/StatefulPartitionedCall\/StatefulPartitionedCall\/StatefulPartitionedCall\/predict\/MobilenetV2\/expanded_conv_5\/depthwise\/Relu6__relu6_threshold6__",
      "type" : "elementwise",
      "name" : "sequential\/keras_layer\/StatefulPartitionedCall\/StatefulPartitionedCall\/StatefulPartitionedCall\/predict\/MobilenetV2\/expanded_conv_5\/depthwise\/Relu6__relu6_threshold6__",
      "beta" : 0
    },
    {
      "alpha" : -1,
      "bottom" : "sequential\/keras_layer\/StatefulPartitionedCall\/StatefulPartitionedCall\/StatefulPartitionedCall\/predict\/MobilenetV2\/expanded_conv_5\/depthwise\/Relu6__relu6_threshold6__",
      "weights" : {

      },
      "mode" : 6,
      "debug_info" : "sequential\/keras_layer\/StatefulPartitionedCall\/StatefulPartitionedCall\/StatefulPartitionedCall\/predict\/MobilenetV2\/expanded_conv_5\/depthwise\/Relu6",
      "top" : "sequential\/keras_layer\/StatefulPartitionedCall\/StatefulPartitionedCall\/StatefulPartitionedCall\/predict\/MobilenetV2\/expanded_conv_5\/depthwise\/Relu6",
      "type" : "activation",
      "name" : "sequential\/keras_layer\/StatefulPartitionedCall\/StatefulPartitionedCall\/StatefulPartitionedCall\/predict\/MobilenetV2\/expanded_conv_5\/depthwise\/Relu6",
      "beta" : 0
    },
    {
      "pad_r" : 0,
      "fused_relu" : 0,
      "fused_tanh" : 0,
      "debug_info" : "sequential\/keras_layer\/StatefulPartitionedCall\/StatefulPartitionedCall\/StatefulPartitionedCall\/predict\/MobilenetV2\/expanded_conv_5\/project\/BatchNorm\/FusedBatchNorm_nchw",
      "pad_fill_mode" : 0,
      "pad_b" : 0,
      "pad_l" : 0,
      "top" : "sequential\/keras_layer\/StatefulPartitionedCall\/StatefulPartitionedCall\/StatefulPartitionedCall\/predict\/MobilenetV2\/expanded_conv_5\/project\/BatchNorm\/FusedBatchNorm_nchw",
      "blob_weights" : 73,
      "K" : 192,
      "blob_biases" : 71,
      "name" : "sequential\/keras_layer\/StatefulPartitionedCall\/StatefulPartitionedCall\/StatefulPartitionedCall\/predict\/MobilenetV2\/expanded_conv_5\/project\/BatchNorm\/FusedBatchNorm_nchw",
      "has_batch_norm" : 0,
      "type" : "convolution",
      "n_groups" : 1,
      "pad_t" : 0,
      "has_biases" : 1,
      "C" : 32,
      "bottom" : "sequential\/keras_layer\/StatefulPartitionedCall\/StatefulPartitionedCall\/StatefulPartitionedCall\/predict\/MobilenetV2\/expanded_conv_5\/depthwise\/Relu6",
      "weights" : {

      },
      "Nx" : 1,
      "pad_mode" : 1,
      "pad_value" : 0,
      "Ny" : 1,
      "n_parallel" : 1
    },
    {
      "bottom" : "sequential\/keras_layer\/StatefulPartitionedCall\/StatefulPartitionedCall\/StatefulPartitionedCall\/predict\/MobilenetV2\/expanded_conv_5\/project\/BatchNorm\/FusedBatchNorm_nchw,sequential\/keras_layer\/StatefulPartitionedCall\/StatefulPartitionedCall\/StatefulPartitionedCall\/predict\/MobilenetV2\/expanded_conv_4\/add",
      "alpha" : 1,
      "operation" : 0,
      "weights" : {

      },
      "fused_relu" : 0,
      "debug_info" : "sequential\/keras_layer\/StatefulPartitionedCall\/StatefulPartitionedCall\/StatefulPartitionedCall\/predict\/MobilenetV2\/expanded_conv_5\/add",
      "top" : "sequential\/keras_layer\/StatefulPartitionedCall\/StatefulPartitionedCall\/StatefulPartitionedCall\/predict\/MobilenetV2\/expanded_conv_5\/add",
      "type" : "elementwise",
      "name" : "sequential\/keras_layer\/StatefulPartitionedCall\/StatefulPartitionedCall\/StatefulPartitionedCall\/predict\/MobilenetV2\/expanded_conv_5\/add",
      "beta" : 0
    },
    {
      "pad_r" : 0,
      "fused_relu" : 1,
      "fused_tanh" : 0,
      "debug_info" : "sequential\/keras_layer\/StatefulPartitionedCall\/StatefulPartitionedCall\/StatefulPartitionedCall\/predict\/MobilenetV2\/expanded_conv_6\/expand\/BatchNorm\/FusedBatchNorm_nchw",
      "pad_fill_mode" : 0,
      "pad_b" : 0,
      "pad_l" : 0,
      "top" : "sequential\/keras_layer\/StatefulPartitionedCall\/StatefulPartitionedCall\/StatefulPartitionedCall\/predict\/MobilenetV2\/expanded_conv_6\/expand\/Relu6__relu6_relu__",
      "blob_weights" : 77,
      "K" : 32,
      "blob_biases" : 75,
      "name" : "sequential\/keras_layer\/StatefulPartitionedCall\/StatefulPartitionedCall\/StatefulPartitionedCall\/predict\/MobilenetV2\/expanded_conv_6\/expand\/BatchNorm\/FusedBatchNorm_nchw",
      "has_batch_norm" : 0,
      "type" : "convolution",
      "n_groups" : 1,
      "pad_t" : 0,
      "has_biases" : 1,
      "C" : 192,
      "bottom" : "sequential\/keras_layer\/StatefulPartitionedCall\/StatefulPartitionedCall\/StatefulPartitionedCall\/predict\/MobilenetV2\/expanded_conv_5\/add",
      "weights" : {

      },
      "Nx" : 1,
      "pad_mode" : 1,
      "pad_value" : 0,
      "Ny" : 1,
      "n_parallel" : 1
    },
    {
      "alpha" : -1,
      "bottom" : "sequential\/keras_layer\/StatefulPartitionedCall\/StatefulPartitionedCall\/StatefulPartitionedCall\/predict\/MobilenetV2\/expanded_conv_6\/expand\/Relu6__relu6_relu__",
      "weights" : {

      },
      "mode" : 6,
      "debug_info" : "sequential\/keras_layer\/StatefulPartitionedCall\/StatefulPartitionedCall\/StatefulPartitionedCall\/predict\/MobilenetV2\/expanded_conv_6\/expand\/Relu6__relu6_neg__",
      "top" : "sequential\/keras_layer\/StatefulPartitionedCall\/StatefulPartitionedCall\/StatefulPartitionedCall\/predict\/MobilenetV2\/expanded_conv_6\/expand\/Relu6__relu6_neg__",
      "type" : "activation",
      "name" : "sequential\/keras_layer\/StatefulPartitionedCall\/StatefulPartitionedCall\/StatefulPartitionedCall\/predict\/MobilenetV2\/expanded_conv_6\/expand\/Relu6__relu6_neg__",
      "beta" : 0
    },
    {
      "bottom" : "sequential\/keras_layer\/StatefulPartitionedCall\/StatefulPartitionedCall\/StatefulPartitionedCall\/predict\/MobilenetV2\/expanded_conv_6\/expand\/Relu6__relu6_neg__",
      "alpha" : -6,
      "operation" : 25,
      "weights" : {

      },
      "fused_relu" : 0,
      "debug_info" : "sequential\/keras_layer\/StatefulPartitionedCall\/StatefulPartitionedCall\/StatefulPartitionedCall\/predict\/MobilenetV2\/expanded_conv_6\/expand\/Relu6__relu6_threshold6__",
      "top" : "sequential\/keras_layer\/StatefulPartitionedCall\/StatefulPartitionedCall\/StatefulPartitionedCall\/predict\/MobilenetV2\/expanded_conv_6\/expand\/Relu6__relu6_threshold6__",
      "type" : "elementwise",
      "name" : "sequential\/keras_layer\/StatefulPartitionedCall\/StatefulPartitionedCall\/StatefulPartitionedCall\/predict\/MobilenetV2\/expanded_conv_6\/expand\/Relu6__relu6_threshold6__",
      "beta" : 0
    },
    {
      "alpha" : -1,
      "bottom" : "sequential\/keras_layer\/StatefulPartitionedCall\/StatefulPartitionedCall\/StatefulPartitionedCall\/predict\/MobilenetV2\/expanded_conv_6\/expand\/Relu6__relu6_threshold6__",
      "weights" : {

      },
      "mode" : 6,
      "debug_info" : "sequential\/keras_layer\/StatefulPartitionedCall\/StatefulPartitionedCall\/StatefulPartitionedCall\/predict\/MobilenetV2\/expanded_conv_6\/expand\/Relu6",
      "top" : "sequential\/keras_layer\/StatefulPartitionedCall\/StatefulPartitionedCall\/StatefulPartitionedCall\/predict\/MobilenetV2\/expanded_conv_6\/expand\/Relu6",
      "type" : "activation",
      "name" : "sequential\/keras_layer\/StatefulPartitionedCall\/StatefulPartitionedCall\/StatefulPartitionedCall\/predict\/MobilenetV2\/expanded_conv_6\/expand\/Relu6",
      "beta" : 0
    },
    {
      "pad_r" : 0,
      "fused_relu" : 1,
      "fused_tanh" : 0,
      "debug_info" : "sequential\/keras_layer\/StatefulPartitionedCall\/StatefulPartitionedCall\/StatefulPartitionedCall\/predict\/MobilenetV2\/expanded_conv_6\/depthwise\/BatchNorm\/FusedBatchNorm_nchw",
      "pad_fill_mode" : 0,
      "pad_b" : 0,
      "pad_l" : 0,
      "top" : "sequential\/keras_layer\/StatefulPartitionedCall\/StatefulPartitionedCall\/StatefulPartitionedCall\/predict\/MobilenetV2\/expanded_conv_6\/depthwise\/Relu6__relu6_relu__",
      "blob_weights" : 81,
      "K" : 192,
      "blob_biases" : 79,
      "stride_x" : 2,
      "name" : "sequential\/keras_layer\/StatefulPartitionedCall\/StatefulPartitionedCall\/StatefulPartitionedCall\/predict\/MobilenetV2\/expanded_conv_6\/depthwise\/BatchNorm\/FusedBatchNorm_nchw",
      "has_batch_norm" : 0,
      "type" : "convolution",
      "n_groups" : 192,
      "pad_t" : 0,
      "stride_y" : 2,
      "has_biases" : 1,
      "C" : 192,
      "bottom" : "sequential\/keras_layer\/StatefulPartitionedCall\/StatefulPartitionedCall\/StatefulPartitionedCall\/predict\/MobilenetV2\/expanded_conv_6\/expand\/Relu6",
      "weights" : {

      },
      "Nx" : 3,
      "pad_mode" : 1,
      "pad_value" : 0,
      "Ny" : 3,
      "n_parallel" : 1
    },
    {
      "alpha" : -1,
      "bottom" : "sequential\/keras_layer\/StatefulPartitionedCall\/StatefulPartitionedCall\/StatefulPartitionedCall\/predict\/MobilenetV2\/expanded_conv_6\/depthwise\/Relu6__relu6_relu__",
      "weights" : {

      },
      "mode" : 6,
      "debug_info" : "sequential\/keras_layer\/StatefulPartitionedCall\/StatefulPartitionedCall\/StatefulPartitionedCall\/predict\/MobilenetV2\/expanded_conv_6\/depthwise\/Relu6__relu6_neg__",
      "top" : "sequential\/keras_layer\/StatefulPartitionedCall\/StatefulPartitionedCall\/StatefulPartitionedCall\/predict\/MobilenetV2\/expanded_conv_6\/depthwise\/Relu6__relu6_neg__",
      "type" : "activation",
      "name" : "sequential\/keras_layer\/StatefulPartitionedCall\/StatefulPartitionedCall\/StatefulPartitionedCall\/predict\/MobilenetV2\/expanded_conv_6\/depthwise\/Relu6__relu6_neg__",
      "beta" : 0
    },
    {
      "bottom" : "sequential\/keras_layer\/StatefulPartitionedCall\/StatefulPartitionedCall\/StatefulPartitionedCall\/predict\/MobilenetV2\/expanded_conv_6\/depthwise\/Relu6__relu6_neg__",
      "alpha" : -6,
      "operation" : 25,
      "weights" : {

      },
      "fused_relu" : 0,
      "debug_info" : "sequential\/keras_layer\/StatefulPartitionedCall\/StatefulPartitionedCall\/StatefulPartitionedCall\/predict\/MobilenetV2\/expanded_conv_6\/depthwise\/Relu6__relu6_threshold6__",
      "top" : "sequential\/keras_layer\/StatefulPartitionedCall\/StatefulPartitionedCall\/StatefulPartitionedCall\/predict\/MobilenetV2\/expanded_conv_6\/depthwise\/Relu6__relu6_threshold6__",
      "type" : "elementwise",
      "name" : "sequential\/keras_layer\/StatefulPartitionedCall\/StatefulPartitionedCall\/StatefulPartitionedCall\/predict\/MobilenetV2\/expanded_conv_6\/depthwise\/Relu6__relu6_threshold6__",
      "beta" : 0
    },
    {
      "alpha" : -1,
      "bottom" : "sequential\/keras_layer\/StatefulPartitionedCall\/StatefulPartitionedCall\/StatefulPartitionedCall\/predict\/MobilenetV2\/expanded_conv_6\/depthwise\/Relu6__relu6_threshold6__",
      "weights" : {

      },
      "mode" : 6,
      "debug_info" : "sequential\/keras_layer\/StatefulPartitionedCall\/StatefulPartitionedCall\/StatefulPartitionedCall\/predict\/MobilenetV2\/expanded_conv_6\/depthwise\/Relu6",
      "top" : "sequential\/keras_layer\/StatefulPartitionedCall\/StatefulPartitionedCall\/StatefulPartitionedCall\/predict\/MobilenetV2\/expanded_conv_6\/depthwise\/Relu6",
      "type" : "activation",
      "name" : "sequential\/keras_layer\/StatefulPartitionedCall\/StatefulPartitionedCall\/StatefulPartitionedCall\/predict\/MobilenetV2\/expanded_conv_6\/depthwise\/Relu6",
      "beta" : 0
    },
    {
      "pad_r" : 0,
      "fused_relu" : 0,
      "fused_tanh" : 0,
      "debug_info" : "sequential\/keras_layer\/StatefulPartitionedCall\/StatefulPartitionedCall\/StatefulPartitionedCall\/predict\/MobilenetV2\/expanded_conv_6\/project\/BatchNorm\/FusedBatchNorm_nchw",
      "pad_fill_mode" : 0,
      "pad_b" : 0,
      "pad_l" : 0,
      "top" : "sequential\/keras_layer\/StatefulPartitionedCall\/StatefulPartitionedCall\/StatefulPartitionedCall\/predict\/MobilenetV2\/expanded_conv_6\/project\/BatchNorm\/FusedBatchNorm_nchw",
      "blob_weights" : 85,
      "K" : 192,
      "blob_biases" : 83,
      "name" : "sequential\/keras_layer\/StatefulPartitionedCall\/StatefulPartitionedCall\/StatefulPartitionedCall\/predict\/MobilenetV2\/expanded_conv_6\/project\/BatchNorm\/FusedBatchNorm_nchw",
      "has_batch_norm" : 0,
      "type" : "convolution",
      "n_groups" : 1,
      "pad_t" : 0,
      "has_biases" : 1,
      "C" : 64,
      "bottom" : "sequential\/keras_layer\/StatefulPartitionedCall\/StatefulPartitionedCall\/StatefulPartitionedCall\/predict\/MobilenetV2\/expanded_conv_6\/depthwise\/Relu6",
      "weights" : {

      },
      "Nx" : 1,
      "pad_mode" : 1,
      "pad_value" : 0,
      "Ny" : 1,
      "n_parallel" : 1
    },
    {
      "pad_r" : 0,
      "fused_relu" : 1,
      "fused_tanh" : 0,
      "debug_info" : "sequential\/keras_layer\/StatefulPartitionedCall\/StatefulPartitionedCall\/StatefulPartitionedCall\/predict\/MobilenetV2\/expanded_conv_7\/expand\/BatchNorm\/FusedBatchNorm_nchw",
      "pad_fill_mode" : 0,
      "pad_b" : 0,
      "pad_l" : 0,
      "top" : "sequential\/keras_layer\/StatefulPartitionedCall\/StatefulPartitionedCall\/StatefulPartitionedCall\/predict\/MobilenetV2\/expanded_conv_7\/expand\/Relu6__relu6_relu__",
      "blob_weights" : 89,
      "K" : 64,
      "blob_biases" : 87,
      "name" : "sequential\/keras_layer\/StatefulPartitionedCall\/StatefulPartitionedCall\/StatefulPartitionedCall\/predict\/MobilenetV2\/expanded_conv_7\/expand\/BatchNorm\/FusedBatchNorm_nchw",
      "has_batch_norm" : 0,
      "type" : "convolution",
      "n_groups" : 1,
      "pad_t" : 0,
      "has_biases" : 1,
      "C" : 384,
      "bottom" : "sequential\/keras_layer\/StatefulPartitionedCall\/StatefulPartitionedCall\/StatefulPartitionedCall\/predict\/MobilenetV2\/expanded_conv_6\/project\/BatchNorm\/FusedBatchNorm_nchw",
      "weights" : {

      },
      "Nx" : 1,
      "pad_mode" : 1,
      "pad_value" : 0,
      "Ny" : 1,
      "n_parallel" : 1
    },
    {
      "alpha" : -1,
      "bottom" : "sequential\/keras_layer\/StatefulPartitionedCall\/StatefulPartitionedCall\/StatefulPartitionedCall\/predict\/MobilenetV2\/expanded_conv_7\/expand\/Relu6__relu6_relu__",
      "weights" : {

      },
      "mode" : 6,
      "debug_info" : "sequential\/keras_layer\/StatefulPartitionedCall\/StatefulPartitionedCall\/StatefulPartitionedCall\/predict\/MobilenetV2\/expanded_conv_7\/expand\/Relu6__relu6_neg__",
      "top" : "sequential\/keras_layer\/StatefulPartitionedCall\/StatefulPartitionedCall\/StatefulPartitionedCall\/predict\/MobilenetV2\/expanded_conv_7\/expand\/Relu6__relu6_neg__",
      "type" : "activation",
      "name" : "sequential\/keras_layer\/StatefulPartitionedCall\/StatefulPartitionedCall\/StatefulPartitionedCall\/predict\/MobilenetV2\/expanded_conv_7\/expand\/Relu6__relu6_neg__",
      "beta" : 0
    },
    {
      "bottom" : "sequential\/keras_layer\/StatefulPartitionedCall\/StatefulPartitionedCall\/StatefulPartitionedCall\/predict\/MobilenetV2\/expanded_conv_7\/expand\/Relu6__relu6_neg__",
      "alpha" : -6,
      "operation" : 25,
      "weights" : {

      },
      "fused_relu" : 0,
      "debug_info" : "sequential\/keras_layer\/StatefulPartitionedCall\/StatefulPartitionedCall\/StatefulPartitionedCall\/predict\/MobilenetV2\/expanded_conv_7\/expand\/Relu6__relu6_threshold6__",
      "top" : "sequential\/keras_layer\/StatefulPartitionedCall\/StatefulPartitionedCall\/StatefulPartitionedCall\/predict\/MobilenetV2\/expanded_conv_7\/expand\/Relu6__relu6_threshold6__",
      "type" : "elementwise",
      "name" : "sequential\/keras_layer\/StatefulPartitionedCall\/StatefulPartitionedCall\/StatefulPartitionedCall\/predict\/MobilenetV2\/expanded_conv_7\/expand\/Relu6__relu6_threshold6__",
      "beta" : 0
    },
    {
      "alpha" : -1,
      "bottom" : "sequential\/keras_layer\/StatefulPartitionedCall\/StatefulPartitionedCall\/StatefulPartitionedCall\/predict\/MobilenetV2\/expanded_conv_7\/expand\/Relu6__relu6_threshold6__",
      "weights" : {

      },
      "mode" : 6,
      "debug_info" : "sequential\/keras_layer\/StatefulPartitionedCall\/StatefulPartitionedCall\/StatefulPartitionedCall\/predict\/MobilenetV2\/expanded_conv_7\/expand\/Relu6",
      "top" : "sequential\/keras_layer\/StatefulPartitionedCall\/StatefulPartitionedCall\/StatefulPartitionedCall\/predict\/MobilenetV2\/expanded_conv_7\/expand\/Relu6",
      "type" : "activation",
      "name" : "sequential\/keras_layer\/StatefulPartitionedCall\/StatefulPartitionedCall\/StatefulPartitionedCall\/predict\/MobilenetV2\/expanded_conv_7\/expand\/Relu6",
      "beta" : 0
    },
    {
      "pad_r" : 0,
      "fused_relu" : 1,
      "fused_tanh" : 0,
      "debug_info" : "sequential\/keras_layer\/StatefulPartitionedCall\/StatefulPartitionedCall\/StatefulPartitionedCall\/predict\/MobilenetV2\/expanded_conv_7\/depthwise\/BatchNorm\/FusedBatchNorm_nchw",
      "pad_fill_mode" : 0,
      "pad_b" : 0,
      "pad_l" : 0,
      "top" : "sequential\/keras_layer\/StatefulPartitionedCall\/StatefulPartitionedCall\/StatefulPartitionedCall\/predict\/MobilenetV2\/expanded_conv_7\/depthwise\/Relu6__relu6_relu__",
      "blob_weights" : 93,
      "K" : 384,
      "blob_biases" : 91,
      "name" : "sequential\/keras_layer\/StatefulPartitionedCall\/StatefulPartitionedCall\/StatefulPartitionedCall\/predict\/MobilenetV2\/expanded_conv_7\/depthwise\/BatchNorm\/FusedBatchNorm_nchw",
      "has_batch_norm" : 0,
      "type" : "convolution",
      "n_groups" : 384,
      "pad_t" : 0,
      "has_biases" : 1,
      "C" : 384,
      "bottom" : "sequential\/keras_layer\/StatefulPartitionedCall\/StatefulPartitionedCall\/StatefulPartitionedCall\/predict\/MobilenetV2\/expanded_conv_7\/expand\/Relu6",
      "weights" : {

      },
      "Nx" : 3,
      "pad_mode" : 1,
      "pad_value" : 0,
      "Ny" : 3,
      "n_parallel" : 1
    },
    {
      "alpha" : -1,
      "bottom" : "sequential\/keras_layer\/StatefulPartitionedCall\/StatefulPartitionedCall\/StatefulPartitionedCall\/predict\/MobilenetV2\/expanded_conv_7\/depthwise\/Relu6__relu6_relu__",
      "weights" : {

      },
      "mode" : 6,
      "debug_info" : "sequential\/keras_layer\/StatefulPartitionedCall\/StatefulPartitionedCall\/StatefulPartitionedCall\/predict\/MobilenetV2\/expanded_conv_7\/depthwise\/Relu6__relu6_neg__",
      "top" : "sequential\/keras_layer\/StatefulPartitionedCall\/StatefulPartitionedCall\/StatefulPartitionedCall\/predict\/MobilenetV2\/expanded_conv_7\/depthwise\/Relu6__relu6_neg__",
      "type" : "activation",
      "name" : "sequential\/keras_layer\/StatefulPartitionedCall\/StatefulPartitionedCall\/StatefulPartitionedCall\/predict\/MobilenetV2\/expanded_conv_7\/depthwise\/Relu6__relu6_neg__",
      "beta" : 0
    },
    {
      "bottom" : "sequential\/keras_layer\/StatefulPartitionedCall\/StatefulPartitionedCall\/StatefulPartitionedCall\/predict\/MobilenetV2\/expanded_conv_7\/depthwise\/Relu6__relu6_neg__",
      "alpha" : -6,
      "operation" : 25,
      "weights" : {

      },
      "fused_relu" : 0,
      "debug_info" : "sequential\/keras_layer\/StatefulPartitionedCall\/StatefulPartitionedCall\/StatefulPartitionedCall\/predict\/MobilenetV2\/expanded_conv_7\/depthwise\/Relu6__relu6_threshold6__",
      "top" : "sequential\/keras_layer\/StatefulPartitionedCall\/StatefulPartitionedCall\/StatefulPartitionedCall\/predict\/MobilenetV2\/expanded_conv_7\/depthwise\/Relu6__relu6_threshold6__",
      "type" : "elementwise",
      "name" : "sequential\/keras_layer\/StatefulPartitionedCall\/StatefulPartitionedCall\/StatefulPartitionedCall\/predict\/MobilenetV2\/expanded_conv_7\/depthwise\/Relu6__relu6_threshold6__",
      "beta" : 0
    },
    {
      "alpha" : -1,
      "bottom" : "sequential\/keras_layer\/StatefulPartitionedCall\/StatefulPartitionedCall\/StatefulPartitionedCall\/predict\/MobilenetV2\/expanded_conv_7\/depthwise\/Relu6__relu6_threshold6__",
      "weights" : {

      },
      "mode" : 6,
      "debug_info" : "sequential\/keras_layer\/StatefulPartitionedCall\/StatefulPartitionedCall\/StatefulPartitionedCall\/predict\/MobilenetV2\/expanded_conv_7\/depthwise\/Relu6",
      "top" : "sequential\/keras_layer\/StatefulPartitionedCall\/StatefulPartitionedCall\/StatefulPartitionedCall\/predict\/MobilenetV2\/expanded_conv_7\/depthwise\/Relu6",
      "type" : "activation",
      "name" : "sequential\/keras_layer\/StatefulPartitionedCall\/StatefulPartitionedCall\/StatefulPartitionedCall\/predict\/MobilenetV2\/expanded_conv_7\/depthwise\/Relu6",
      "beta" : 0
    },
    {
      "pad_r" : 0,
      "fused_relu" : 0,
      "fused_tanh" : 0,
      "debug_info" : "sequential\/keras_layer\/StatefulPartitionedCall\/StatefulPartitionedCall\/StatefulPartitionedCall\/predict\/MobilenetV2\/expanded_conv_7\/project\/BatchNorm\/FusedBatchNorm_nchw",
      "pad_fill_mode" : 0,
      "pad_b" : 0,
      "pad_l" : 0,
      "top" : "sequential\/keras_layer\/StatefulPartitionedCall\/StatefulPartitionedCall\/StatefulPartitionedCall\/predict\/MobilenetV2\/expanded_conv_7\/project\/BatchNorm\/FusedBatchNorm_nchw",
      "blob_weights" : 97,
      "K" : 384,
      "blob_biases" : 95,
      "name" : "sequential\/keras_layer\/StatefulPartitionedCall\/StatefulPartitionedCall\/StatefulPartitionedCall\/predict\/MobilenetV2\/expanded_conv_7\/project\/BatchNorm\/FusedBatchNorm_nchw",
      "has_batch_norm" : 0,
      "type" : "convolution",
      "n_groups" : 1,
      "pad_t" : 0,
      "has_biases" : 1,
      "C" : 64,
      "bottom" : "sequential\/keras_layer\/StatefulPartitionedCall\/StatefulPartitionedCall\/StatefulPartitionedCall\/predict\/MobilenetV2\/expanded_conv_7\/depthwise\/Relu6",
      "weights" : {

      },
      "Nx" : 1,
      "pad_mode" : 1,
      "pad_value" : 0,
      "Ny" : 1,
      "n_parallel" : 1
    },
    {
      "bottom" : "sequential\/keras_layer\/StatefulPartitionedCall\/StatefulPartitionedCall\/StatefulPartitionedCall\/predict\/MobilenetV2\/expanded_conv_7\/project\/BatchNorm\/FusedBatchNorm_nchw,sequential\/keras_layer\/StatefulPartitionedCall\/StatefulPartitionedCall\/StatefulPartitionedCall\/predict\/MobilenetV2\/expanded_conv_6\/project\/BatchNorm\/FusedBatchNorm_nchw",
      "alpha" : 1,
      "operation" : 0,
      "weights" : {

      },
      "fused_relu" : 0,
      "debug_info" : "sequential\/keras_layer\/StatefulPartitionedCall\/StatefulPartitionedCall\/StatefulPartitionedCall\/predict\/MobilenetV2\/expanded_conv_7\/add",
      "top" : "sequential\/keras_layer\/StatefulPartitionedCall\/StatefulPartitionedCall\/StatefulPartitionedCall\/predict\/MobilenetV2\/expanded_conv_7\/add",
      "type" : "elementwise",
      "name" : "sequential\/keras_layer\/StatefulPartitionedCall\/StatefulPartitionedCall\/StatefulPartitionedCall\/predict\/MobilenetV2\/expanded_conv_7\/add",
      "beta" : 0
    },
    {
      "pad_r" : 0,
      "fused_relu" : 1,
      "fused_tanh" : 0,
      "debug_info" : "sequential\/keras_layer\/StatefulPartitionedCall\/StatefulPartitionedCall\/StatefulPartitionedCall\/predict\/MobilenetV2\/expanded_conv_8\/expand\/BatchNorm\/FusedBatchNorm_nchw",
      "pad_fill_mode" : 0,
      "pad_b" : 0,
      "pad_l" : 0,
      "top" : "sequential\/keras_layer\/StatefulPartitionedCall\/StatefulPartitionedCall\/StatefulPartitionedCall\/predict\/MobilenetV2\/expanded_conv_8\/expand\/Relu6__relu6_relu__",
      "blob_weights" : 101,
      "K" : 64,
      "blob_biases" : 99,
      "name" : "sequential\/keras_layer\/StatefulPartitionedCall\/StatefulPartitionedCall\/StatefulPartitionedCall\/predict\/MobilenetV2\/expanded_conv_8\/expand\/BatchNorm\/FusedBatchNorm_nchw",
      "has_batch_norm" : 0,
      "type" : "convolution",
      "n_groups" : 1,
      "pad_t" : 0,
      "has_biases" : 1,
      "C" : 384,
      "bottom" : "sequential\/keras_layer\/StatefulPartitionedCall\/StatefulPartitionedCall\/StatefulPartitionedCall\/predict\/MobilenetV2\/expanded_conv_7\/add",
      "weights" : {

      },
      "Nx" : 1,
      "pad_mode" : 1,
      "pad_value" : 0,
      "Ny" : 1,
      "n_parallel" : 1
    },
    {
      "alpha" : -1,
      "bottom" : "sequential\/keras_layer\/StatefulPartitionedCall\/StatefulPartitionedCall\/StatefulPartitionedCall\/predict\/MobilenetV2\/expanded_conv_8\/expand\/Relu6__relu6_relu__",
      "weights" : {

      },
      "mode" : 6,
      "debug_info" : "sequential\/keras_layer\/StatefulPartitionedCall\/StatefulPartitionedCall\/StatefulPartitionedCall\/predict\/MobilenetV2\/expanded_conv_8\/expand\/Relu6__relu6_neg__",
      "top" : "sequential\/keras_layer\/StatefulPartitionedCall\/StatefulPartitionedCall\/StatefulPartitionedCall\/predict\/MobilenetV2\/expanded_conv_8\/expand\/Relu6__relu6_neg__",
      "type" : "activation",
      "name" : "sequential\/keras_layer\/StatefulPartitionedCall\/StatefulPartitionedCall\/StatefulPartitionedCall\/predict\/MobilenetV2\/expanded_conv_8\/expand\/Relu6__relu6_neg__",
      "beta" : 0
    },
    {
      "bottom" : "sequential\/keras_layer\/StatefulPartitionedCall\/StatefulPartitionedCall\/StatefulPartitionedCall\/predict\/MobilenetV2\/expanded_conv_8\/expand\/Relu6__relu6_neg__",
      "alpha" : -6,
      "operation" : 25,
      "weights" : {

      },
      "fused_relu" : 0,
      "debug_info" : "sequential\/keras_layer\/StatefulPartitionedCall\/StatefulPartitionedCall\/StatefulPartitionedCall\/predict\/MobilenetV2\/expanded_conv_8\/expand\/Relu6__relu6_threshold6__",
      "top" : "sequential\/keras_layer\/StatefulPartitionedCall\/StatefulPartitionedCall\/StatefulPartitionedCall\/predict\/MobilenetV2\/expanded_conv_8\/expand\/Relu6__relu6_threshold6__",
      "type" : "elementwise",
      "name" : "sequential\/keras_layer\/StatefulPartitionedCall\/StatefulPartitionedCall\/StatefulPartitionedCall\/predict\/MobilenetV2\/expanded_conv_8\/expand\/Relu6__relu6_threshold6__",
      "beta" : 0
    },
    {
      "alpha" : -1,
      "bottom" : "sequential\/keras_layer\/StatefulPartitionedCall\/StatefulPartitionedCall\/StatefulPartitionedCall\/predict\/MobilenetV2\/expanded_conv_8\/expand\/Relu6__relu6_threshold6__",
      "weights" : {

      },
      "mode" : 6,
      "debug_info" : "sequential\/keras_layer\/StatefulPartitionedCall\/StatefulPartitionedCall\/StatefulPartitionedCall\/predict\/MobilenetV2\/expanded_conv_8\/expand\/Relu6",
      "top" : "sequential\/keras_layer\/StatefulPartitionedCall\/StatefulPartitionedCall\/StatefulPartitionedCall\/predict\/MobilenetV2\/expanded_conv_8\/expand\/Relu6",
      "type" : "activation",
      "name" : "sequential\/keras_layer\/StatefulPartitionedCall\/StatefulPartitionedCall\/StatefulPartitionedCall\/predict\/MobilenetV2\/expanded_conv_8\/expand\/Relu6",
      "beta" : 0
    },
    {
      "pad_r" : 0,
      "fused_relu" : 1,
      "fused_tanh" : 0,
      "debug_info" : "sequential\/keras_layer\/StatefulPartitionedCall\/StatefulPartitionedCall\/StatefulPartitionedCall\/predict\/MobilenetV2\/expanded_conv_8\/depthwise\/BatchNorm\/FusedBatchNorm_nchw",
      "pad_fill_mode" : 0,
      "pad_b" : 0,
      "pad_l" : 0,
      "top" : "sequential\/keras_layer\/StatefulPartitionedCall\/StatefulPartitionedCall\/StatefulPartitionedCall\/predict\/MobilenetV2\/expanded_conv_8\/depthwise\/Relu6__relu6_relu__",
      "blob_weights" : 105,
      "K" : 384,
      "blob_biases" : 103,
      "name" : "sequential\/keras_layer\/StatefulPartitionedCall\/StatefulPartitionedCall\/StatefulPartitionedCall\/predict\/MobilenetV2\/expanded_conv_8\/depthwise\/BatchNorm\/FusedBatchNorm_nchw",
      "has_batch_norm" : 0,
      "type" : "convolution",
      "n_groups" : 384,
      "pad_t" : 0,
      "has_biases" : 1,
      "C" : 384,
      "bottom" : "sequential\/keras_layer\/StatefulPartitionedCall\/StatefulPartitionedCall\/StatefulPartitionedCall\/predict\/MobilenetV2\/expanded_conv_8\/expand\/Relu6",
      "weights" : {

      },
      "Nx" : 3,
      "pad_mode" : 1,
      "pad_value" : 0,
      "Ny" : 3,
      "n_parallel" : 1
    },
    {
      "alpha" : -1,
      "bottom" : "sequential\/keras_layer\/StatefulPartitionedCall\/StatefulPartitionedCall\/StatefulPartitionedCall\/predict\/MobilenetV2\/expanded_conv_8\/depthwise\/Relu6__relu6_relu__",
      "weights" : {

      },
      "mode" : 6,
      "debug_info" : "sequential\/keras_layer\/StatefulPartitionedCall\/StatefulPartitionedCall\/StatefulPartitionedCall\/predict\/MobilenetV2\/expanded_conv_8\/depthwise\/Relu6__relu6_neg__",
      "top" : "sequential\/keras_layer\/StatefulPartitionedCall\/StatefulPartitionedCall\/StatefulPartitionedCall\/predict\/MobilenetV2\/expanded_conv_8\/depthwise\/Relu6__relu6_neg__",
      "type" : "activation",
      "name" : "sequential\/keras_layer\/StatefulPartitionedCall\/StatefulPartitionedCall\/StatefulPartitionedCall\/predict\/MobilenetV2\/expanded_conv_8\/depthwise\/Relu6__relu6_neg__",
      "beta" : 0
    },
    {
      "bottom" : "sequential\/keras_layer\/StatefulPartitionedCall\/StatefulPartitionedCall\/StatefulPartitionedCall\/predict\/MobilenetV2\/expanded_conv_8\/depthwise\/Relu6__relu6_neg__",
      "alpha" : -6,
      "operation" : 25,
      "weights" : {

      },
      "fused_relu" : 0,
      "debug_info" : "sequential\/keras_layer\/StatefulPartitionedCall\/StatefulPartitionedCall\/StatefulPartitionedCall\/predict\/MobilenetV2\/expanded_conv_8\/depthwise\/Relu6__relu6_threshold6__",
      "top" : "sequential\/keras_layer\/StatefulPartitionedCall\/StatefulPartitionedCall\/StatefulPartitionedCall\/predict\/MobilenetV2\/expanded_conv_8\/depthwise\/Relu6__relu6_threshold6__",
      "type" : "elementwise",
      "name" : "sequential\/keras_layer\/StatefulPartitionedCall\/StatefulPartitionedCall\/StatefulPartitionedCall\/predict\/MobilenetV2\/expanded_conv_8\/depthwise\/Relu6__relu6_threshold6__",
      "beta" : 0
    },
    {
      "alpha" : -1,
      "bottom" : "sequential\/keras_layer\/StatefulPartitionedCall\/StatefulPartitionedCall\/StatefulPartitionedCall\/predict\/MobilenetV2\/expanded_conv_8\/depthwise\/Relu6__relu6_threshold6__",
      "weights" : {

      },
      "mode" : 6,
      "debug_info" : "sequential\/keras_layer\/StatefulPartitionedCall\/StatefulPartitionedCall\/StatefulPartitionedCall\/predict\/MobilenetV2\/expanded_conv_8\/depthwise\/Relu6",
      "top" : "sequential\/keras_layer\/StatefulPartitionedCall\/StatefulPartitionedCall\/StatefulPartitionedCall\/predict\/MobilenetV2\/expanded_conv_8\/depthwise\/Relu6",
      "type" : "activation",
      "name" : "sequential\/keras_layer\/StatefulPartitionedCall\/StatefulPartitionedCall\/StatefulPartitionedCall\/predict\/MobilenetV2\/expanded_conv_8\/depthwise\/Relu6",
      "beta" : 0
    },
    {
      "pad_r" : 0,
      "fused_relu" : 0,
      "fused_tanh" : 0,
      "debug_info" : "sequential\/keras_layer\/StatefulPartitionedCall\/StatefulPartitionedCall\/StatefulPartitionedCall\/predict\/MobilenetV2\/expanded_conv_8\/project\/BatchNorm\/FusedBatchNorm_nchw",
      "pad_fill_mode" : 0,
      "pad_b" : 0,
      "pad_l" : 0,
      "top" : "sequential\/keras_layer\/StatefulPartitionedCall\/StatefulPartitionedCall\/StatefulPartitionedCall\/predict\/MobilenetV2\/expanded_conv_8\/project\/BatchNorm\/FusedBatchNorm_nchw",
      "blob_weights" : 109,
      "K" : 384,
      "blob_biases" : 107,
      "name" : "sequential\/keras_layer\/StatefulPartitionedCall\/StatefulPartitionedCall\/StatefulPartitionedCall\/predict\/MobilenetV2\/expanded_conv_8\/project\/BatchNorm\/FusedBatchNorm_nchw",
      "has_batch_norm" : 0,
      "type" : "convolution",
      "n_groups" : 1,
      "pad_t" : 0,
      "has_biases" : 1,
      "C" : 64,
      "bottom" : "sequential\/keras_layer\/StatefulPartitionedCall\/StatefulPartitionedCall\/StatefulPartitionedCall\/predict\/MobilenetV2\/expanded_conv_8\/depthwise\/Relu6",
      "weights" : {

      },
      "Nx" : 1,
      "pad_mode" : 1,
      "pad_value" : 0,
      "Ny" : 1,
      "n_parallel" : 1
    },
    {
      "bottom" : "sequential\/keras_layer\/StatefulPartitionedCall\/StatefulPartitionedCall\/StatefulPartitionedCall\/predict\/MobilenetV2\/expanded_conv_8\/project\/BatchNorm\/FusedBatchNorm_nchw,sequential\/keras_layer\/StatefulPartitionedCall\/StatefulPartitionedCall\/StatefulPartitionedCall\/predict\/MobilenetV2\/expanded_conv_7\/add",
      "alpha" : 1,
      "operation" : 0,
      "weights" : {

      },
      "fused_relu" : 0,
      "debug_info" : "sequential\/keras_layer\/StatefulPartitionedCall\/StatefulPartitionedCall\/StatefulPartitionedCall\/predict\/MobilenetV2\/expanded_conv_8\/add",
      "top" : "sequential\/keras_layer\/StatefulPartitionedCall\/StatefulPartitionedCall\/StatefulPartitionedCall\/predict\/MobilenetV2\/expanded_conv_8\/add",
      "type" : "elementwise",
      "name" : "sequential\/keras_layer\/StatefulPartitionedCall\/StatefulPartitionedCall\/StatefulPartitionedCall\/predict\/MobilenetV2\/expanded_conv_8\/add",
      "beta" : 0
    },
    {
      "pad_r" : 0,
      "fused_relu" : 1,
      "fused_tanh" : 0,
      "debug_info" : "sequential\/keras_layer\/StatefulPartitionedCall\/StatefulPartitionedCall\/StatefulPartitionedCall\/predict\/MobilenetV2\/expanded_conv_9\/expand\/BatchNorm\/FusedBatchNorm_nchw",
      "pad_fill_mode" : 0,
      "pad_b" : 0,
      "pad_l" : 0,
      "top" : "sequential\/keras_layer\/StatefulPartitionedCall\/StatefulPartitionedCall\/StatefulPartitionedCall\/predict\/MobilenetV2\/expanded_conv_9\/expand\/Relu6__relu6_relu__",
      "blob_weights" : 113,
      "K" : 64,
      "blob_biases" : 111,
      "name" : "sequential\/keras_layer\/StatefulPartitionedCall\/StatefulPartitionedCall\/StatefulPartitionedCall\/predict\/MobilenetV2\/expanded_conv_9\/expand\/BatchNorm\/FusedBatchNorm_nchw",
      "has_batch_norm" : 0,
      "type" : "convolution",
      "n_groups" : 1,
      "pad_t" : 0,
      "has_biases" : 1,
      "C" : 384,
      "bottom" : "sequential\/keras_layer\/StatefulPartitionedCall\/StatefulPartitionedCall\/StatefulPartitionedCall\/predict\/MobilenetV2\/expanded_conv_8\/add",
      "weights" : {

      },
      "Nx" : 1,
      "pad_mode" : 1,
      "pad_value" : 0,
      "Ny" : 1,
      "n_parallel" : 1
    },
    {
      "alpha" : -1,
      "bottom" : "sequential\/keras_layer\/StatefulPartitionedCall\/StatefulPartitionedCall\/StatefulPartitionedCall\/predict\/MobilenetV2\/expanded_conv_9\/expand\/Relu6__relu6_relu__",
      "weights" : {

      },
      "mode" : 6,
      "debug_info" : "sequential\/keras_layer\/StatefulPartitionedCall\/StatefulPartitionedCall\/StatefulPartitionedCall\/predict\/MobilenetV2\/expanded_conv_9\/expand\/Relu6__relu6_neg__",
      "top" : "sequential\/keras_layer\/StatefulPartitionedCall\/StatefulPartitionedCall\/StatefulPartitionedCall\/predict\/MobilenetV2\/expanded_conv_9\/expand\/Relu6__relu6_neg__",
      "type" : "activation",
      "name" : "sequential\/keras_layer\/StatefulPartitionedCall\/StatefulPartitionedCall\/StatefulPartitionedCall\/predict\/MobilenetV2\/expanded_conv_9\/expand\/Relu6__relu6_neg__",
      "beta" : 0
    },
    {
      "bottom" : "sequential\/keras_layer\/StatefulPartitionedCall\/StatefulPartitionedCall\/StatefulPartitionedCall\/predict\/MobilenetV2\/expanded_conv_9\/expand\/Relu6__relu6_neg__",
      "alpha" : -6,
      "operation" : 25,
      "weights" : {

      },
      "fused_relu" : 0,
      "debug_info" : "sequential\/keras_layer\/StatefulPartitionedCall\/StatefulPartitionedCall\/StatefulPartitionedCall\/predict\/MobilenetV2\/expanded_conv_9\/expand\/Relu6__relu6_threshold6__",
      "top" : "sequential\/keras_layer\/StatefulPartitionedCall\/StatefulPartitionedCall\/StatefulPartitionedCall\/predict\/MobilenetV2\/expanded_conv_9\/expand\/Relu6__relu6_threshold6__",
      "type" : "elementwise",
      "name" : "sequential\/keras_layer\/StatefulPartitionedCall\/StatefulPartitionedCall\/StatefulPartitionedCall\/predict\/MobilenetV2\/expanded_conv_9\/expand\/Relu6__relu6_threshold6__",
      "beta" : 0
    },
    {
      "alpha" : -1,
      "bottom" : "sequential\/keras_layer\/StatefulPartitionedCall\/StatefulPartitionedCall\/StatefulPartitionedCall\/predict\/MobilenetV2\/expanded_conv_9\/expand\/Relu6__relu6_threshold6__",
      "weights" : {

      },
      "mode" : 6,
      "debug_info" : "sequential\/keras_layer\/StatefulPartitionedCall\/StatefulPartitionedCall\/StatefulPartitionedCall\/predict\/MobilenetV2\/expanded_conv_9\/expand\/Relu6",
      "top" : "sequential\/keras_layer\/StatefulPartitionedCall\/StatefulPartitionedCall\/StatefulPartitionedCall\/predict\/MobilenetV2\/expanded_conv_9\/expand\/Relu6",
      "type" : "activation",
      "name" : "sequential\/keras_layer\/StatefulPartitionedCall\/StatefulPartitionedCall\/StatefulPartitionedCall\/predict\/MobilenetV2\/expanded_conv_9\/expand\/Relu6",
      "beta" : 0
    },
    {
      "pad_r" : 0,
      "fused_relu" : 1,
      "fused_tanh" : 0,
      "debug_info" : "sequential\/keras_layer\/StatefulPartitionedCall\/StatefulPartitionedCall\/StatefulPartitionedCall\/predict\/MobilenetV2\/expanded_conv_9\/depthwise\/BatchNorm\/FusedBatchNorm_nchw",
      "pad_fill_mode" : 0,
      "pad_b" : 0,
      "pad_l" : 0,
      "top" : "sequential\/keras_layer\/StatefulPartitionedCall\/StatefulPartitionedCall\/StatefulPartitionedCall\/predict\/MobilenetV2\/expanded_conv_9\/depthwise\/Relu6__relu6_relu__",
      "blob_weights" : 117,
      "K" : 384,
      "blob_biases" : 115,
      "name" : "sequential\/keras_layer\/StatefulPartitionedCall\/StatefulPartitionedCall\/StatefulPartitionedCall\/predict\/MobilenetV2\/expanded_conv_9\/depthwise\/BatchNorm\/FusedBatchNorm_nchw",
      "has_batch_norm" : 0,
      "type" : "convolution",
      "n_groups" : 384,
      "pad_t" : 0,
      "has_biases" : 1,
      "C" : 384,
      "bottom" : "sequential\/keras_layer\/StatefulPartitionedCall\/StatefulPartitionedCall\/StatefulPartitionedCall\/predict\/MobilenetV2\/expanded_conv_9\/expand\/Relu6",
      "weights" : {

      },
      "Nx" : 3,
      "pad_mode" : 1,
      "pad_value" : 0,
      "Ny" : 3,
      "n_parallel" : 1
    },
    {
      "alpha" : -1,
      "bottom" : "sequential\/keras_layer\/StatefulPartitionedCall\/StatefulPartitionedCall\/StatefulPartitionedCall\/predict\/MobilenetV2\/expanded_conv_9\/depthwise\/Relu6__relu6_relu__",
      "weights" : {

      },
      "mode" : 6,
      "debug_info" : "sequential\/keras_layer\/StatefulPartitionedCall\/StatefulPartitionedCall\/StatefulPartitionedCall\/predict\/MobilenetV2\/expanded_conv_9\/depthwise\/Relu6__relu6_neg__",
      "top" : "sequential\/keras_layer\/StatefulPartitionedCall\/StatefulPartitionedCall\/StatefulPartitionedCall\/predict\/MobilenetV2\/expanded_conv_9\/depthwise\/Relu6__relu6_neg__",
      "type" : "activation",
      "name" : "sequential\/keras_layer\/StatefulPartitionedCall\/StatefulPartitionedCall\/StatefulPartitionedCall\/predict\/MobilenetV2\/expanded_conv_9\/depthwise\/Relu6__relu6_neg__",
      "beta" : 0
    },
    {
      "bottom" : "sequential\/keras_layer\/StatefulPartitionedCall\/StatefulPartitionedCall\/StatefulPartitionedCall\/predict\/MobilenetV2\/expanded_conv_9\/depthwise\/Relu6__relu6_neg__",
      "alpha" : -6,
      "operation" : 25,
      "weights" : {

      },
      "fused_relu" : 0,
      "debug_info" : "sequential\/keras_layer\/StatefulPartitionedCall\/StatefulPartitionedCall\/StatefulPartitionedCall\/predict\/MobilenetV2\/expanded_conv_9\/depthwise\/Relu6__relu6_threshold6__",
      "top" : "sequential\/keras_layer\/StatefulPartitionedCall\/StatefulPartitionedCall\/StatefulPartitionedCall\/predict\/MobilenetV2\/expanded_conv_9\/depthwise\/Relu6__relu6_threshold6__",
      "type" : "elementwise",
      "name" : "sequential\/keras_layer\/StatefulPartitionedCall\/StatefulPartitionedCall\/StatefulPartitionedCall\/predict\/MobilenetV2\/expanded_conv_9\/depthwise\/Relu6__relu6_threshold6__",
      "beta" : 0
    },
    {
      "alpha" : -1,
      "bottom" : "sequential\/keras_layer\/StatefulPartitionedCall\/StatefulPartitionedCall\/StatefulPartitionedCall\/predict\/MobilenetV2\/expanded_conv_9\/depthwise\/Relu6__relu6_threshold6__",
      "weights" : {

      },
      "mode" : 6,
      "debug_info" : "sequential\/keras_layer\/StatefulPartitionedCall\/StatefulPartitionedCall\/StatefulPartitionedCall\/predict\/MobilenetV2\/expanded_conv_9\/depthwise\/Relu6",
      "top" : "sequential\/keras_layer\/StatefulPartitionedCall\/StatefulPartitionedCall\/StatefulPartitionedCall\/predict\/MobilenetV2\/expanded_conv_9\/depthwise\/Relu6",
      "type" : "activation",
      "name" : "sequential\/keras_layer\/StatefulPartitionedCall\/StatefulPartitionedCall\/StatefulPartitionedCall\/predict\/MobilenetV2\/expanded_conv_9\/depthwise\/Relu6",
      "beta" : 0
    },
    {
      "pad_r" : 0,
      "fused_relu" : 0,
      "fused_tanh" : 0,
      "debug_info" : "sequential\/keras_layer\/StatefulPartitionedCall\/StatefulPartitionedCall\/StatefulPartitionedCall\/predict\/MobilenetV2\/expanded_conv_9\/project\/BatchNorm\/FusedBatchNorm_nchw",
      "pad_fill_mode" : 0,
      "pad_b" : 0,
      "pad_l" : 0,
      "top" : "sequential\/keras_layer\/StatefulPartitionedCall\/StatefulPartitionedCall\/StatefulPartitionedCall\/predict\/MobilenetV2\/expanded_conv_9\/project\/BatchNorm\/FusedBatchNorm_nchw",
      "blob_weights" : 121,
      "K" : 384,
      "blob_biases" : 119,
      "name" : "sequential\/keras_layer\/StatefulPartitionedCall\/StatefulPartitionedCall\/StatefulPartitionedCall\/predict\/MobilenetV2\/expanded_conv_9\/project\/BatchNorm\/FusedBatchNorm_nchw",
      "has_batch_norm" : 0,
      "type" : "convolution",
      "n_groups" : 1,
      "pad_t" : 0,
      "has_biases" : 1,
      "C" : 64,
      "bottom" : "sequential\/keras_layer\/StatefulPartitionedCall\/StatefulPartitionedCall\/StatefulPartitionedCall\/predict\/MobilenetV2\/expanded_conv_9\/depthwise\/Relu6",
      "weights" : {

      },
      "Nx" : 1,
      "pad_mode" : 1,
      "pad_value" : 0,
      "Ny" : 1,
      "n_parallel" : 1
    },
    {
      "bottom" : "sequential\/keras_layer\/StatefulPartitionedCall\/StatefulPartitionedCall\/StatefulPartitionedCall\/predict\/MobilenetV2\/expanded_conv_9\/project\/BatchNorm\/FusedBatchNorm_nchw,sequential\/keras_layer\/StatefulPartitionedCall\/StatefulPartitionedCall\/StatefulPartitionedCall\/predict\/MobilenetV2\/expanded_conv_8\/add",
      "alpha" : 1,
      "operation" : 0,
      "weights" : {

      },
      "fused_relu" : 0,
      "debug_info" : "sequential\/keras_layer\/StatefulPartitionedCall\/StatefulPartitionedCall\/StatefulPartitionedCall\/predict\/MobilenetV2\/expanded_conv_9\/add",
      "top" : "sequential\/keras_layer\/StatefulPartitionedCall\/StatefulPartitionedCall\/StatefulPartitionedCall\/predict\/MobilenetV2\/expanded_conv_9\/add",
      "type" : "elementwise",
      "name" : "sequential\/keras_layer\/StatefulPartitionedCall\/StatefulPartitionedCall\/StatefulPartitionedCall\/predict\/MobilenetV2\/expanded_conv_9\/add",
      "beta" : 0
    },
    {
      "pad_r" : 0,
      "fused_relu" : 1,
      "fused_tanh" : 0,
      "debug_info" : "sequential\/keras_layer\/StatefulPartitionedCall\/StatefulPartitionedCall\/StatefulPartitionedCall\/predict\/MobilenetV2\/expanded_conv_10\/expand\/BatchNorm\/FusedBatchNorm_nchw",
      "pad_fill_mode" : 0,
      "pad_b" : 0,
      "pad_l" : 0,
      "top" : "sequential\/keras_layer\/StatefulPartitionedCall\/StatefulPartitionedCall\/StatefulPartitionedCall\/predict\/MobilenetV2\/expanded_conv_10\/expand\/Relu6__relu6_relu__",
      "blob_weights" : 125,
      "K" : 64,
      "blob_biases" : 123,
      "name" : "sequential\/keras_layer\/StatefulPartitionedCall\/StatefulPartitionedCall\/StatefulPartitionedCall\/predict\/MobilenetV2\/expanded_conv_10\/expand\/BatchNorm\/FusedBatchNorm_nchw",
      "has_batch_norm" : 0,
      "type" : "convolution",
      "n_groups" : 1,
      "pad_t" : 0,
      "has_biases" : 1,
      "C" : 384,
      "bottom" : "sequential\/keras_layer\/StatefulPartitionedCall\/StatefulPartitionedCall\/StatefulPartitionedCall\/predict\/MobilenetV2\/expanded_conv_9\/add",
      "weights" : {

      },
      "Nx" : 1,
      "pad_mode" : 1,
      "pad_value" : 0,
      "Ny" : 1,
      "n_parallel" : 1
    },
    {
      "alpha" : -1,
      "bottom" : "sequential\/keras_layer\/StatefulPartitionedCall\/StatefulPartitionedCall\/StatefulPartitionedCall\/predict\/MobilenetV2\/expanded_conv_10\/expand\/Relu6__relu6_relu__",
      "weights" : {

      },
      "mode" : 6,
      "debug_info" : "sequential\/keras_layer\/StatefulPartitionedCall\/StatefulPartitionedCall\/StatefulPartitionedCall\/predict\/MobilenetV2\/expanded_conv_10\/expand\/Relu6__relu6_neg__",
      "top" : "sequential\/keras_layer\/StatefulPartitionedCall\/StatefulPartitionedCall\/StatefulPartitionedCall\/predict\/MobilenetV2\/expanded_conv_10\/expand\/Relu6__relu6_neg__",
      "type" : "activation",
      "name" : "sequential\/keras_layer\/StatefulPartitionedCall\/StatefulPartitionedCall\/StatefulPartitionedCall\/predict\/MobilenetV2\/expanded_conv_10\/expand\/Relu6__relu6_neg__",
      "beta" : 0
    },
    {
      "bottom" : "sequential\/keras_layer\/StatefulPartitionedCall\/StatefulPartitionedCall\/StatefulPartitionedCall\/predict\/MobilenetV2\/expanded_conv_10\/expand\/Relu6__relu6_neg__",
      "alpha" : -6,
      "operation" : 25,
      "weights" : {

      },
      "fused_relu" : 0,
      "debug_info" : "sequential\/keras_layer\/StatefulPartitionedCall\/StatefulPartitionedCall\/StatefulPartitionedCall\/predict\/MobilenetV2\/expanded_conv_10\/expand\/Relu6__relu6_threshold6__",
      "top" : "sequential\/keras_layer\/StatefulPartitionedCall\/StatefulPartitionedCall\/StatefulPartitionedCall\/predict\/MobilenetV2\/expanded_conv_10\/expand\/Relu6__relu6_threshold6__",
      "type" : "elementwise",
      "name" : "sequential\/keras_layer\/StatefulPartitionedCall\/StatefulPartitionedCall\/StatefulPartitionedCall\/predict\/MobilenetV2\/expanded_conv_10\/expand\/Relu6__relu6_threshold6__",
      "beta" : 0
    },
    {
      "alpha" : -1,
      "bottom" : "sequential\/keras_layer\/StatefulPartitionedCall\/StatefulPartitionedCall\/StatefulPartitionedCall\/predict\/MobilenetV2\/expanded_conv_10\/expand\/Relu6__relu6_threshold6__",
      "weights" : {

      },
      "mode" : 6,
      "debug_info" : "sequential\/keras_layer\/StatefulPartitionedCall\/StatefulPartitionedCall\/StatefulPartitionedCall\/predict\/MobilenetV2\/expanded_conv_10\/expand\/Relu6",
      "top" : "sequential\/keras_layer\/StatefulPartitionedCall\/StatefulPartitionedCall\/StatefulPartitionedCall\/predict\/MobilenetV2\/expanded_conv_10\/expand\/Relu6",
      "type" : "activation",
      "name" : "sequential\/keras_layer\/StatefulPartitionedCall\/StatefulPartitionedCall\/StatefulPartitionedCall\/predict\/MobilenetV2\/expanded_conv_10\/expand\/Relu6",
      "beta" : 0
    },
    {
      "pad_r" : 0,
      "fused_relu" : 1,
      "fused_tanh" : 0,
      "debug_info" : "sequential\/keras_layer\/StatefulPartitionedCall\/StatefulPartitionedCall\/StatefulPartitionedCall\/predict\/MobilenetV2\/expanded_conv_10\/depthwise\/BatchNorm\/FusedBatchNorm_nchw",
      "pad_fill_mode" : 0,
      "pad_b" : 0,
      "pad_l" : 0,
      "top" : "sequential\/keras_layer\/StatefulPartitionedCall\/StatefulPartitionedCall\/StatefulPartitionedCall\/predict\/MobilenetV2\/expanded_conv_10\/depthwise\/Relu6__relu6_relu__",
      "blob_weights" : 129,
      "K" : 384,
      "blob_biases" : 127,
      "name" : "sequential\/keras_layer\/StatefulPartitionedCall\/StatefulPartitionedCall\/StatefulPartitionedCall\/predict\/MobilenetV2\/expanded_conv_10\/depthwise\/BatchNorm\/FusedBatchNorm_nchw",
      "has_batch_norm" : 0,
      "type" : "convolution",
      "n_groups" : 384,
      "pad_t" : 0,
      "has_biases" : 1,
      "C" : 384,
      "bottom" : "sequential\/keras_layer\/StatefulPartitionedCall\/StatefulPartitionedCall\/StatefulPartitionedCall\/predict\/MobilenetV2\/expanded_conv_10\/expand\/Relu6",
      "weights" : {

      },
      "Nx" : 3,
      "pad_mode" : 1,
      "pad_value" : 0,
      "Ny" : 3,
      "n_parallel" : 1
    },
    {
      "alpha" : -1,
      "bottom" : "sequential\/keras_layer\/StatefulPartitionedCall\/StatefulPartitionedCall\/StatefulPartitionedCall\/predict\/MobilenetV2\/expanded_conv_10\/depthwise\/Relu6__relu6_relu__",
      "weights" : {

      },
      "mode" : 6,
      "debug_info" : "sequential\/keras_layer\/StatefulPartitionedCall\/StatefulPartitionedCall\/StatefulPartitionedCall\/predict\/MobilenetV2\/expanded_conv_10\/depthwise\/Relu6__relu6_neg__",
      "top" : "sequential\/keras_layer\/StatefulPartitionedCall\/StatefulPartitionedCall\/StatefulPartitionedCall\/predict\/MobilenetV2\/expanded_conv_10\/depthwise\/Relu6__relu6_neg__",
      "type" : "activation",
      "name" : "sequential\/keras_layer\/StatefulPartitionedCall\/StatefulPartitionedCall\/StatefulPartitionedCall\/predict\/MobilenetV2\/expanded_conv_10\/depthwise\/Relu6__relu6_neg__",
      "beta" : 0
    },
    {
      "bottom" : "sequential\/keras_layer\/StatefulPartitionedCall\/StatefulPartitionedCall\/StatefulPartitionedCall\/predict\/MobilenetV2\/expanded_conv_10\/depthwise\/Relu6__relu6_neg__",
      "alpha" : -6,
      "operation" : 25,
      "weights" : {

      },
      "fused_relu" : 0,
      "debug_info" : "sequential\/keras_layer\/StatefulPartitionedCall\/StatefulPartitionedCall\/StatefulPartitionedCall\/predict\/MobilenetV2\/expanded_conv_10\/depthwise\/Relu6__relu6_threshold6__",
      "top" : "sequential\/keras_layer\/StatefulPartitionedCall\/StatefulPartitionedCall\/StatefulPartitionedCall\/predict\/MobilenetV2\/expanded_conv_10\/depthwise\/Relu6__relu6_threshold6__",
      "type" : "elementwise",
      "name" : "sequential\/keras_layer\/StatefulPartitionedCall\/StatefulPartitionedCall\/StatefulPartitionedCall\/predict\/MobilenetV2\/expanded_conv_10\/depthwise\/Relu6__relu6_threshold6__",
      "beta" : 0
    },
    {
      "alpha" : -1,
      "bottom" : "sequential\/keras_layer\/StatefulPartitionedCall\/StatefulPartitionedCall\/StatefulPartitionedCall\/predict\/MobilenetV2\/expanded_conv_10\/depthwise\/Relu6__relu6_threshold6__",
      "weights" : {

      },
      "mode" : 6,
      "debug_info" : "sequential\/keras_layer\/StatefulPartitionedCall\/StatefulPartitionedCall\/StatefulPartitionedCall\/predict\/MobilenetV2\/expanded_conv_10\/depthwise\/Relu6",
      "top" : "sequential\/keras_layer\/StatefulPartitionedCall\/StatefulPartitionedCall\/StatefulPartitionedCall\/predict\/MobilenetV2\/expanded_conv_10\/depthwise\/Relu6",
      "type" : "activation",
      "name" : "sequential\/keras_layer\/StatefulPartitionedCall\/StatefulPartitionedCall\/StatefulPartitionedCall\/predict\/MobilenetV2\/expanded_conv_10\/depthwise\/Relu6",
      "beta" : 0
    },
    {
      "pad_r" : 0,
      "fused_relu" : 0,
      "fused_tanh" : 0,
      "debug_info" : "sequential\/keras_layer\/StatefulPartitionedCall\/StatefulPartitionedCall\/StatefulPartitionedCall\/predict\/MobilenetV2\/expanded_conv_10\/project\/BatchNorm\/FusedBatchNorm_nchw",
      "pad_fill_mode" : 0,
      "pad_b" : 0,
      "pad_l" : 0,
      "top" : "sequential\/keras_layer\/StatefulPartitionedCall\/StatefulPartitionedCall\/StatefulPartitionedCall\/predict\/MobilenetV2\/expanded_conv_10\/project\/BatchNorm\/FusedBatchNorm_nchw",
      "blob_weights" : 133,
      "K" : 384,
      "blob_biases" : 131,
      "name" : "sequential\/keras_layer\/StatefulPartitionedCall\/StatefulPartitionedCall\/StatefulPartitionedCall\/predict\/MobilenetV2\/expanded_conv_10\/project\/BatchNorm\/FusedBatchNorm_nchw",
      "has_batch_norm" : 0,
      "type" : "convolution",
      "n_groups" : 1,
      "pad_t" : 0,
      "has_biases" : 1,
      "C" : 96,
      "bottom" : "sequential\/keras_layer\/StatefulPartitionedCall\/StatefulPartitionedCall\/StatefulPartitionedCall\/predict\/MobilenetV2\/expanded_conv_10\/depthwise\/Relu6",
      "weights" : {

      },
      "Nx" : 1,
      "pad_mode" : 1,
      "pad_value" : 0,
      "Ny" : 1,
      "n_parallel" : 1
    },
    {
      "pad_r" : 0,
      "fused_relu" : 1,
      "fused_tanh" : 0,
      "debug_info" : "sequential\/keras_layer\/StatefulPartitionedCall\/StatefulPartitionedCall\/StatefulPartitionedCall\/predict\/MobilenetV2\/expanded_conv_11\/expand\/BatchNorm\/FusedBatchNorm_nchw",
      "pad_fill_mode" : 0,
      "pad_b" : 0,
      "pad_l" : 0,
      "top" : "sequential\/keras_layer\/StatefulPartitionedCall\/StatefulPartitionedCall\/StatefulPartitionedCall\/predict\/MobilenetV2\/expanded_conv_11\/expand\/Relu6__relu6_relu__",
      "blob_weights" : 137,
      "K" : 96,
      "blob_biases" : 135,
      "name" : "sequential\/keras_layer\/StatefulPartitionedCall\/StatefulPartitionedCall\/StatefulPartitionedCall\/predict\/MobilenetV2\/expanded_conv_11\/expand\/BatchNorm\/FusedBatchNorm_nchw",
      "has_batch_norm" : 0,
      "type" : "convolution",
      "n_groups" : 1,
      "pad_t" : 0,
      "has_biases" : 1,
      "C" : 576,
      "bottom" : "sequential\/keras_layer\/StatefulPartitionedCall\/StatefulPartitionedCall\/StatefulPartitionedCall\/predict\/MobilenetV2\/expanded_conv_10\/project\/BatchNorm\/FusedBatchNorm_nchw",
      "weights" : {

      },
      "Nx" : 1,
      "pad_mode" : 1,
      "pad_value" : 0,
      "Ny" : 1,
      "n_parallel" : 1
    },
    {
      "alpha" : -1,
      "bottom" : "sequential\/keras_layer\/StatefulPartitionedCall\/StatefulPartitionedCall\/StatefulPartitionedCall\/predict\/MobilenetV2\/expanded_conv_11\/expand\/Relu6__relu6_relu__",
      "weights" : {

      },
      "mode" : 6,
      "debug_info" : "sequential\/keras_layer\/StatefulPartitionedCall\/StatefulPartitionedCall\/StatefulPartitionedCall\/predict\/MobilenetV2\/expanded_conv_11\/expand\/Relu6__relu6_neg__",
      "top" : "sequential\/keras_layer\/StatefulPartitionedCall\/StatefulPartitionedCall\/StatefulPartitionedCall\/predict\/MobilenetV2\/expanded_conv_11\/expand\/Relu6__relu6_neg__",
      "type" : "activation",
      "name" : "sequential\/keras_layer\/StatefulPartitionedCall\/StatefulPartitionedCall\/StatefulPartitionedCall\/predict\/MobilenetV2\/expanded_conv_11\/expand\/Relu6__relu6_neg__",
      "beta" : 0
    },
    {
      "bottom" : "sequential\/keras_layer\/StatefulPartitionedCall\/StatefulPartitionedCall\/StatefulPartitionedCall\/predict\/MobilenetV2\/expanded_conv_11\/expand\/Relu6__relu6_neg__",
      "alpha" : -6,
      "operation" : 25,
      "weights" : {

      },
      "fused_relu" : 0,
      "debug_info" : "sequential\/keras_layer\/StatefulPartitionedCall\/StatefulPartitionedCall\/StatefulPartitionedCall\/predict\/MobilenetV2\/expanded_conv_11\/expand\/Relu6__relu6_threshold6__",
      "top" : "sequential\/keras_layer\/StatefulPartitionedCall\/StatefulPartitionedCall\/StatefulPartitionedCall\/predict\/MobilenetV2\/expanded_conv_11\/expand\/Relu6__relu6_threshold6__",
      "type" : "elementwise",
      "name" : "sequential\/keras_layer\/StatefulPartitionedCall\/StatefulPartitionedCall\/StatefulPartitionedCall\/predict\/MobilenetV2\/expanded_conv_11\/expand\/Relu6__relu6_threshold6__",
      "beta" : 0
    },
    {
      "alpha" : -1,
      "bottom" : "sequential\/keras_layer\/StatefulPartitionedCall\/StatefulPartitionedCall\/StatefulPartitionedCall\/predict\/MobilenetV2\/expanded_conv_11\/expand\/Relu6__relu6_threshold6__",
      "weights" : {

      },
      "mode" : 6,
      "debug_info" : "sequential\/keras_layer\/StatefulPartitionedCall\/StatefulPartitionedCall\/StatefulPartitionedCall\/predict\/MobilenetV2\/expanded_conv_11\/expand\/Relu6",
      "top" : "sequential\/keras_layer\/StatefulPartitionedCall\/StatefulPartitionedCall\/StatefulPartitionedCall\/predict\/MobilenetV2\/expanded_conv_11\/expand\/Relu6",
      "type" : "activation",
      "name" : "sequential\/keras_layer\/StatefulPartitionedCall\/StatefulPartitionedCall\/StatefulPartitionedCall\/predict\/MobilenetV2\/expanded_conv_11\/expand\/Relu6",
      "beta" : 0
    },
    {
      "pad_r" : 0,
      "fused_relu" : 1,
      "fused_tanh" : 0,
      "debug_info" : "sequential\/keras_layer\/StatefulPartitionedCall\/StatefulPartitionedCall\/StatefulPartitionedCall\/predict\/MobilenetV2\/expanded_conv_11\/depthwise\/BatchNorm\/FusedBatchNorm_nchw",
      "pad_fill_mode" : 0,
      "pad_b" : 0,
      "pad_l" : 0,
      "top" : "sequential\/keras_layer\/StatefulPartitionedCall\/StatefulPartitionedCall\/StatefulPartitionedCall\/predict\/MobilenetV2\/expanded_conv_11\/depthwise\/Relu6__relu6_relu__",
      "blob_weights" : 141,
      "K" : 576,
      "blob_biases" : 139,
      "name" : "sequential\/keras_layer\/StatefulPartitionedCall\/StatefulPartitionedCall\/StatefulPartitionedCall\/predict\/MobilenetV2\/expanded_conv_11\/depthwise\/BatchNorm\/FusedBatchNorm_nchw",
      "has_batch_norm" : 0,
      "type" : "convolution",
      "n_groups" : 576,
      "pad_t" : 0,
      "has_biases" : 1,
      "C" : 576,
      "bottom" : "sequential\/keras_layer\/StatefulPartitionedCall\/StatefulPartitionedCall\/StatefulPartitionedCall\/predict\/MobilenetV2\/expanded_conv_11\/expand\/Relu6",
      "weights" : {

      },
      "Nx" : 3,
      "pad_mode" : 1,
      "pad_value" : 0,
      "Ny" : 3,
      "n_parallel" : 1
    },
    {
      "alpha" : -1,
      "bottom" : "sequential\/keras_layer\/StatefulPartitionedCall\/StatefulPartitionedCall\/StatefulPartitionedCall\/predict\/MobilenetV2\/expanded_conv_11\/depthwise\/Relu6__relu6_relu__",
      "weights" : {

      },
      "mode" : 6,
      "debug_info" : "sequential\/keras_layer\/StatefulPartitionedCall\/StatefulPartitionedCall\/StatefulPartitionedCall\/predict\/MobilenetV2\/expanded_conv_11\/depthwise\/Relu6__relu6_neg__",
      "top" : "sequential\/keras_layer\/StatefulPartitionedCall\/StatefulPartitionedCall\/StatefulPartitionedCall\/predict\/MobilenetV2\/expanded_conv_11\/depthwise\/Relu6__relu6_neg__",
      "type" : "activation",
      "name" : "sequential\/keras_layer\/StatefulPartitionedCall\/StatefulPartitionedCall\/StatefulPartitionedCall\/predict\/MobilenetV2\/expanded_conv_11\/depthwise\/Relu6__relu6_neg__",
      "beta" : 0
    },
    {
      "bottom" : "sequential\/keras_layer\/StatefulPartitionedCall\/StatefulPartitionedCall\/StatefulPartitionedCall\/predict\/MobilenetV2\/expanded_conv_11\/depthwise\/Relu6__relu6_neg__",
      "alpha" : -6,
      "operation" : 25,
      "weights" : {

      },
      "fused_relu" : 0,
      "debug_info" : "sequential\/keras_layer\/StatefulPartitionedCall\/StatefulPartitionedCall\/StatefulPartitionedCall\/predict\/MobilenetV2\/expanded_conv_11\/depthwise\/Relu6__relu6_threshold6__",
      "top" : "sequential\/keras_layer\/StatefulPartitionedCall\/StatefulPartitionedCall\/StatefulPartitionedCall\/predict\/MobilenetV2\/expanded_conv_11\/depthwise\/Relu6__relu6_threshold6__",
      "type" : "elementwise",
      "name" : "sequential\/keras_layer\/StatefulPartitionedCall\/StatefulPartitionedCall\/StatefulPartitionedCall\/predict\/MobilenetV2\/expanded_conv_11\/depthwise\/Relu6__relu6_threshold6__",
      "beta" : 0
    },
    {
      "alpha" : -1,
      "bottom" : "sequential\/keras_layer\/StatefulPartitionedCall\/StatefulPartitionedCall\/StatefulPartitionedCall\/predict\/MobilenetV2\/expanded_conv_11\/depthwise\/Relu6__relu6_threshold6__",
      "weights" : {

      },
      "mode" : 6,
      "debug_info" : "sequential\/keras_layer\/StatefulPartitionedCall\/StatefulPartitionedCall\/StatefulPartitionedCall\/predict\/MobilenetV2\/expanded_conv_11\/depthwise\/Relu6",
      "top" : "sequential\/keras_layer\/StatefulPartitionedCall\/StatefulPartitionedCall\/StatefulPartitionedCall\/predict\/MobilenetV2\/expanded_conv_11\/depthwise\/Relu6",
      "type" : "activation",
      "name" : "sequential\/keras_layer\/StatefulPartitionedCall\/StatefulPartitionedCall\/StatefulPartitionedCall\/predict\/MobilenetV2\/expanded_conv_11\/depthwise\/Relu6",
      "beta" : 0
    },
    {
      "pad_r" : 0,
      "fused_relu" : 0,
      "fused_tanh" : 0,
      "debug_info" : "sequential\/keras_layer\/StatefulPartitionedCall\/StatefulPartitionedCall\/StatefulPartitionedCall\/predict\/MobilenetV2\/expanded_conv_11\/project\/BatchNorm\/FusedBatchNorm_nchw",
      "pad_fill_mode" : 0,
      "pad_b" : 0,
      "pad_l" : 0,
      "top" : "sequential\/keras_layer\/StatefulPartitionedCall\/StatefulPartitionedCall\/StatefulPartitionedCall\/predict\/MobilenetV2\/expanded_conv_11\/project\/BatchNorm\/FusedBatchNorm_nchw",
      "blob_weights" : 145,
      "K" : 576,
      "blob_biases" : 143,
      "name" : "sequential\/keras_layer\/StatefulPartitionedCall\/StatefulPartitionedCall\/StatefulPartitionedCall\/predict\/MobilenetV2\/expanded_conv_11\/project\/BatchNorm\/FusedBatchNorm_nchw",
      "has_batch_norm" : 0,
      "type" : "convolution",
      "n_groups" : 1,
      "pad_t" : 0,
      "has_biases" : 1,
      "C" : 96,
      "bottom" : "sequential\/keras_layer\/StatefulPartitionedCall\/StatefulPartitionedCall\/StatefulPartitionedCall\/predict\/MobilenetV2\/expanded_conv_11\/depthwise\/Relu6",
      "weights" : {

      },
      "Nx" : 1,
      "pad_mode" : 1,
      "pad_value" : 0,
      "Ny" : 1,
      "n_parallel" : 1
    },
    {
      "bottom" : "sequential\/keras_layer\/StatefulPartitionedCall\/StatefulPartitionedCall\/StatefulPartitionedCall\/predict\/MobilenetV2\/expanded_conv_11\/project\/BatchNorm\/FusedBatchNorm_nchw,sequential\/keras_layer\/StatefulPartitionedCall\/StatefulPartitionedCall\/StatefulPartitionedCall\/predict\/MobilenetV2\/expanded_conv_10\/project\/BatchNorm\/FusedBatchNorm_nchw",
      "alpha" : 1,
      "operation" : 0,
      "weights" : {

      },
      "fused_relu" : 0,
      "debug_info" : "sequential\/keras_layer\/StatefulPartitionedCall\/StatefulPartitionedCall\/StatefulPartitionedCall\/predict\/MobilenetV2\/expanded_conv_11\/add",
      "top" : "sequential\/keras_layer\/StatefulPartitionedCall\/StatefulPartitionedCall\/StatefulPartitionedCall\/predict\/MobilenetV2\/expanded_conv_11\/add",
      "type" : "elementwise",
      "name" : "sequential\/keras_layer\/StatefulPartitionedCall\/StatefulPartitionedCall\/StatefulPartitionedCall\/predict\/MobilenetV2\/expanded_conv_11\/add",
      "beta" : 0
    },
    {
      "pad_r" : 0,
      "fused_relu" : 1,
      "fused_tanh" : 0,
      "debug_info" : "sequential\/keras_layer\/StatefulPartitionedCall\/StatefulPartitionedCall\/StatefulPartitionedCall\/predict\/MobilenetV2\/expanded_conv_12\/expand\/BatchNorm\/FusedBatchNorm_nchw",
      "pad_fill_mode" : 0,
      "pad_b" : 0,
      "pad_l" : 0,
      "top" : "sequential\/keras_layer\/StatefulPartitionedCall\/StatefulPartitionedCall\/StatefulPartitionedCall\/predict\/MobilenetV2\/expanded_conv_12\/expand\/Relu6__relu6_relu__",
      "blob_weights" : 149,
      "K" : 96,
      "blob_biases" : 147,
      "name" : "sequential\/keras_layer\/StatefulPartitionedCall\/StatefulPartitionedCall\/StatefulPartitionedCall\/predict\/MobilenetV2\/expanded_conv_12\/expand\/BatchNorm\/FusedBatchNorm_nchw",
      "has_batch_norm" : 0,
      "type" : "convolution",
      "n_groups" : 1,
      "pad_t" : 0,
      "has_biases" : 1,
      "C" : 576,
      "bottom" : "sequential\/keras_layer\/StatefulPartitionedCall\/StatefulPartitionedCall\/StatefulPartitionedCall\/predict\/MobilenetV2\/expanded_conv_11\/add",
      "weights" : {

      },
      "Nx" : 1,
      "pad_mode" : 1,
      "pad_value" : 0,
      "Ny" : 1,
      "n_parallel" : 1
    },
    {
      "alpha" : -1,
      "bottom" : "sequential\/keras_layer\/StatefulPartitionedCall\/StatefulPartitionedCall\/StatefulPartitionedCall\/predict\/MobilenetV2\/expanded_conv_12\/expand\/Relu6__relu6_relu__",
      "weights" : {

      },
      "mode" : 6,
      "debug_info" : "sequential\/keras_layer\/StatefulPartitionedCall\/StatefulPartitionedCall\/StatefulPartitionedCall\/predict\/MobilenetV2\/expanded_conv_12\/expand\/Relu6__relu6_neg__",
      "top" : "sequential\/keras_layer\/StatefulPartitionedCall\/StatefulPartitionedCall\/StatefulPartitionedCall\/predict\/MobilenetV2\/expanded_conv_12\/expand\/Relu6__relu6_neg__",
      "type" : "activation",
      "name" : "sequential\/keras_layer\/StatefulPartitionedCall\/StatefulPartitionedCall\/StatefulPartitionedCall\/predict\/MobilenetV2\/expanded_conv_12\/expand\/Relu6__relu6_neg__",
      "beta" : 0
    },
    {
      "bottom" : "sequential\/keras_layer\/StatefulPartitionedCall\/StatefulPartitionedCall\/StatefulPartitionedCall\/predict\/MobilenetV2\/expanded_conv_12\/expand\/Relu6__relu6_neg__",
      "alpha" : -6,
      "operation" : 25,
      "weights" : {

      },
      "fused_relu" : 0,
      "debug_info" : "sequential\/keras_layer\/StatefulPartitionedCall\/StatefulPartitionedCall\/StatefulPartitionedCall\/predict\/MobilenetV2\/expanded_conv_12\/expand\/Relu6__relu6_threshold6__",
      "top" : "sequential\/keras_layer\/StatefulPartitionedCall\/StatefulPartitionedCall\/StatefulPartitionedCall\/predict\/MobilenetV2\/expanded_conv_12\/expand\/Relu6__relu6_threshold6__",
      "type" : "elementwise",
      "name" : "sequential\/keras_layer\/StatefulPartitionedCall\/StatefulPartitionedCall\/StatefulPartitionedCall\/predict\/MobilenetV2\/expanded_conv_12\/expand\/Relu6__relu6_threshold6__",
      "beta" : 0
    },
    {
      "alpha" : -1,
      "bottom" : "sequential\/keras_layer\/StatefulPartitionedCall\/StatefulPartitionedCall\/StatefulPartitionedCall\/predict\/MobilenetV2\/expanded_conv_12\/expand\/Relu6__relu6_threshold6__",
      "weights" : {

      },
      "mode" : 6,
      "debug_info" : "sequential\/keras_layer\/StatefulPartitionedCall\/StatefulPartitionedCall\/StatefulPartitionedCall\/predict\/MobilenetV2\/expanded_conv_12\/expand\/Relu6",
      "top" : "sequential\/keras_layer\/StatefulPartitionedCall\/StatefulPartitionedCall\/StatefulPartitionedCall\/predict\/MobilenetV2\/expanded_conv_12\/expand\/Relu6",
      "type" : "activation",
      "name" : "sequential\/keras_layer\/StatefulPartitionedCall\/StatefulPartitionedCall\/StatefulPartitionedCall\/predict\/MobilenetV2\/expanded_conv_12\/expand\/Relu6",
      "beta" : 0
    },
    {
      "pad_r" : 0,
      "fused_relu" : 1,
      "fused_tanh" : 0,
      "debug_info" : "sequential\/keras_layer\/StatefulPartitionedCall\/StatefulPartitionedCall\/StatefulPartitionedCall\/predict\/MobilenetV2\/expanded_conv_12\/depthwise\/BatchNorm\/FusedBatchNorm_nchw",
      "pad_fill_mode" : 0,
      "pad_b" : 0,
      "pad_l" : 0,
      "top" : "sequential\/keras_layer\/StatefulPartitionedCall\/StatefulPartitionedCall\/StatefulPartitionedCall\/predict\/MobilenetV2\/expanded_conv_12\/depthwise\/Relu6__relu6_relu__",
      "blob_weights" : 153,
      "K" : 576,
      "blob_biases" : 151,
      "name" : "sequential\/keras_layer\/StatefulPartitionedCall\/StatefulPartitionedCall\/StatefulPartitionedCall\/predict\/MobilenetV2\/expanded_conv_12\/depthwise\/BatchNorm\/FusedBatchNorm_nchw",
      "has_batch_norm" : 0,
      "type" : "convolution",
      "n_groups" : 576,
      "pad_t" : 0,
      "has_biases" : 1,
      "C" : 576,
      "bottom" : "sequential\/keras_layer\/StatefulPartitionedCall\/StatefulPartitionedCall\/StatefulPartitionedCall\/predict\/MobilenetV2\/expanded_conv_12\/expand\/Relu6",
      "weights" : {

      },
      "Nx" : 3,
      "pad_mode" : 1,
      "pad_value" : 0,
      "Ny" : 3,
      "n_parallel" : 1
    },
    {
      "alpha" : -1,
      "bottom" : "sequential\/keras_layer\/StatefulPartitionedCall\/StatefulPartitionedCall\/StatefulPartitionedCall\/predict\/MobilenetV2\/expanded_conv_12\/depthwise\/Relu6__relu6_relu__",
      "weights" : {

      },
      "mode" : 6,
      "debug_info" : "sequential\/keras_layer\/StatefulPartitionedCall\/StatefulPartitionedCall\/StatefulPartitionedCall\/predict\/MobilenetV2\/expanded_conv_12\/depthwise\/Relu6__relu6_neg__",
      "top" : "sequential\/keras_layer\/StatefulPartitionedCall\/StatefulPartitionedCall\/StatefulPartitionedCall\/predict\/MobilenetV2\/expanded_conv_12\/depthwise\/Relu6__relu6_neg__",
      "type" : "activation",
      "name" : "sequential\/keras_layer\/StatefulPartitionedCall\/StatefulPartitionedCall\/StatefulPartitionedCall\/predict\/MobilenetV2\/expanded_conv_12\/depthwise\/Relu6__relu6_neg__",
      "beta" : 0
    },
    {
      "bottom" : "sequential\/keras_layer\/StatefulPartitionedCall\/StatefulPartitionedCall\/StatefulPartitionedCall\/predict\/MobilenetV2\/expanded_conv_12\/depthwise\/Relu6__relu6_neg__",
      "alpha" : -6,
      "operation" : 25,
      "weights" : {

      },
      "fused_relu" : 0,
      "debug_info" : "sequential\/keras_layer\/StatefulPartitionedCall\/StatefulPartitionedCall\/StatefulPartitionedCall\/predict\/MobilenetV2\/expanded_conv_12\/depthwise\/Relu6__relu6_threshold6__",
      "top" : "sequential\/keras_layer\/StatefulPartitionedCall\/StatefulPartitionedCall\/StatefulPartitionedCall\/predict\/MobilenetV2\/expanded_conv_12\/depthwise\/Relu6__relu6_threshold6__",
      "type" : "elementwise",
      "name" : "sequential\/keras_layer\/StatefulPartitionedCall\/StatefulPartitionedCall\/StatefulPartitionedCall\/predict\/MobilenetV2\/expanded_conv_12\/depthwise\/Relu6__relu6_threshold6__",
      "beta" : 0
    },
    {
      "alpha" : -1,
      "bottom" : "sequential\/keras_layer\/StatefulPartitionedCall\/StatefulPartitionedCall\/StatefulPartitionedCall\/predict\/MobilenetV2\/expanded_conv_12\/depthwise\/Relu6__relu6_threshold6__",
      "weights" : {

      },
      "mode" : 6,
      "debug_info" : "sequential\/keras_layer\/StatefulPartitionedCall\/StatefulPartitionedCall\/StatefulPartitionedCall\/predict\/MobilenetV2\/expanded_conv_12\/depthwise\/Relu6",
      "top" : "sequential\/keras_layer\/StatefulPartitionedCall\/StatefulPartitionedCall\/StatefulPartitionedCall\/predict\/MobilenetV2\/expanded_conv_12\/depthwise\/Relu6",
      "type" : "activation",
      "name" : "sequential\/keras_layer\/StatefulPartitionedCall\/StatefulPartitionedCall\/StatefulPartitionedCall\/predict\/MobilenetV2\/expanded_conv_12\/depthwise\/Relu6",
      "beta" : 0
    },
    {
      "pad_r" : 0,
      "fused_relu" : 0,
      "fused_tanh" : 0,
      "debug_info" : "sequential\/keras_layer\/StatefulPartitionedCall\/StatefulPartitionedCall\/StatefulPartitionedCall\/predict\/MobilenetV2\/expanded_conv_12\/project\/BatchNorm\/FusedBatchNorm_nchw",
      "pad_fill_mode" : 0,
      "pad_b" : 0,
      "pad_l" : 0,
      "top" : "sequential\/keras_layer\/StatefulPartitionedCall\/StatefulPartitionedCall\/StatefulPartitionedCall\/predict\/MobilenetV2\/expanded_conv_12\/project\/BatchNorm\/FusedBatchNorm_nchw",
      "blob_weights" : 157,
      "K" : 576,
      "blob_biases" : 155,
      "name" : "sequential\/keras_layer\/StatefulPartitionedCall\/StatefulPartitionedCall\/StatefulPartitionedCall\/predict\/MobilenetV2\/expanded_conv_12\/project\/BatchNorm\/FusedBatchNorm_nchw",
      "has_batch_norm" : 0,
      "type" : "convolution",
      "n_groups" : 1,
      "pad_t" : 0,
      "has_biases" : 1,
      "C" : 96,
      "bottom" : "sequential\/keras_layer\/StatefulPartitionedCall\/StatefulPartitionedCall\/StatefulPartitionedCall\/predict\/MobilenetV2\/expanded_conv_12\/depthwise\/Relu6",
      "weights" : {

      },
      "Nx" : 1,
      "pad_mode" : 1,
      "pad_value" : 0,
      "Ny" : 1,
      "n_parallel" : 1
    },
    {
      "bottom" : "sequential\/keras_layer\/StatefulPartitionedCall\/StatefulPartitionedCall\/StatefulPartitionedCall\/predict\/MobilenetV2\/expanded_conv_12\/project\/BatchNorm\/FusedBatchNorm_nchw,sequential\/keras_layer\/StatefulPartitionedCall\/StatefulPartitionedCall\/StatefulPartitionedCall\/predict\/MobilenetV2\/expanded_conv_11\/add",
      "alpha" : 1,
      "operation" : 0,
      "weights" : {

      },
      "fused_relu" : 0,
      "debug_info" : "sequential\/keras_layer\/StatefulPartitionedCall\/StatefulPartitionedCall\/StatefulPartitionedCall\/predict\/MobilenetV2\/expanded_conv_12\/add",
      "top" : "sequential\/keras_layer\/StatefulPartitionedCall\/StatefulPartitionedCall\/StatefulPartitionedCall\/predict\/MobilenetV2\/expanded_conv_12\/add",
      "type" : "elementwise",
      "name" : "sequential\/keras_layer\/StatefulPartitionedCall\/StatefulPartitionedCall\/StatefulPartitionedCall\/predict\/MobilenetV2\/expanded_conv_12\/add",
      "beta" : 0
    },
    {
      "pad_r" : 0,
      "fused_relu" : 1,
      "fused_tanh" : 0,
      "debug_info" : "sequential\/keras_layer\/StatefulPartitionedCall\/StatefulPartitionedCall\/StatefulPartitionedCall\/predict\/MobilenetV2\/expanded_conv_13\/expand\/BatchNorm\/FusedBatchNorm_nchw",
      "pad_fill_mode" : 0,
      "pad_b" : 0,
      "pad_l" : 0,
      "top" : "sequential\/keras_layer\/StatefulPartitionedCall\/StatefulPartitionedCall\/StatefulPartitionedCall\/predict\/MobilenetV2\/expanded_conv_13\/expand\/Relu6__relu6_relu__",
      "blob_weights" : 161,
      "K" : 96,
      "blob_biases" : 159,
      "name" : "sequential\/keras_layer\/StatefulPartitionedCall\/StatefulPartitionedCall\/StatefulPartitionedCall\/predict\/MobilenetV2\/expanded_conv_13\/expand\/BatchNorm\/FusedBatchNorm_nchw",
      "has_batch_norm" : 0,
      "type" : "convolution",
      "n_groups" : 1,
      "pad_t" : 0,
      "has_biases" : 1,
      "C" : 576,
      "bottom" : "sequential\/keras_layer\/StatefulPartitionedCall\/StatefulPartitionedCall\/StatefulPartitionedCall\/predict\/MobilenetV2\/expanded_conv_12\/add",
      "weights" : {

      },
      "Nx" : 1,
      "pad_mode" : 1,
      "pad_value" : 0,
      "Ny" : 1,
      "n_parallel" : 1
    },
    {
      "alpha" : -1,
      "bottom" : "sequential\/keras_layer\/StatefulPartitionedCall\/StatefulPartitionedCall\/StatefulPartitionedCall\/predict\/MobilenetV2\/expanded_conv_13\/expand\/Relu6__relu6_relu__",
      "weights" : {

      },
      "mode" : 6,
      "debug_info" : "sequential\/keras_layer\/StatefulPartitionedCall\/StatefulPartitionedCall\/StatefulPartitionedCall\/predict\/MobilenetV2\/expanded_conv_13\/expand\/Relu6__relu6_neg__",
      "top" : "sequential\/keras_layer\/StatefulPartitionedCall\/StatefulPartitionedCall\/StatefulPartitionedCall\/predict\/MobilenetV2\/expanded_conv_13\/expand\/Relu6__relu6_neg__",
      "type" : "activation",
      "name" : "sequential\/keras_layer\/StatefulPartitionedCall\/StatefulPartitionedCall\/StatefulPartitionedCall\/predict\/MobilenetV2\/expanded_conv_13\/expand\/Relu6__relu6_neg__",
      "beta" : 0
    },
    {
      "bottom" : "sequential\/keras_layer\/StatefulPartitionedCall\/StatefulPartitionedCall\/StatefulPartitionedCall\/predict\/MobilenetV2\/expanded_conv_13\/expand\/Relu6__relu6_neg__",
      "alpha" : -6,
      "operation" : 25,
      "weights" : {

      },
      "fused_relu" : 0,
      "debug_info" : "sequential\/keras_layer\/StatefulPartitionedCall\/StatefulPartitionedCall\/StatefulPartitionedCall\/predict\/MobilenetV2\/expanded_conv_13\/expand\/Relu6__relu6_threshold6__",
      "top" : "sequential\/keras_layer\/StatefulPartitionedCall\/StatefulPartitionedCall\/StatefulPartitionedCall\/predict\/MobilenetV2\/expanded_conv_13\/expand\/Relu6__relu6_threshold6__",
      "type" : "elementwise",
      "name" : "sequential\/keras_layer\/StatefulPartitionedCall\/StatefulPartitionedCall\/StatefulPartitionedCall\/predict\/MobilenetV2\/expanded_conv_13\/expand\/Relu6__relu6_threshold6__",
      "beta" : 0
    },
    {
      "alpha" : -1,
      "bottom" : "sequential\/keras_layer\/StatefulPartitionedCall\/StatefulPartitionedCall\/StatefulPartitionedCall\/predict\/MobilenetV2\/expanded_conv_13\/expand\/Relu6__relu6_threshold6__",
      "weights" : {

      },
      "mode" : 6,
      "debug_info" : "sequential\/keras_layer\/StatefulPartitionedCall\/StatefulPartitionedCall\/StatefulPartitionedCall\/predict\/MobilenetV2\/expanded_conv_13\/expand\/Relu6",
      "top" : "sequential\/keras_layer\/StatefulPartitionedCall\/StatefulPartitionedCall\/StatefulPartitionedCall\/predict\/MobilenetV2\/expanded_conv_13\/expand\/Relu6",
      "type" : "activation",
      "name" : "sequential\/keras_layer\/StatefulPartitionedCall\/StatefulPartitionedCall\/StatefulPartitionedCall\/predict\/MobilenetV2\/expanded_conv_13\/expand\/Relu6",
      "beta" : 0
    },
    {
      "pad_r" : 0,
      "fused_relu" : 1,
      "fused_tanh" : 0,
      "debug_info" : "sequential\/keras_layer\/StatefulPartitionedCall\/StatefulPartitionedCall\/StatefulPartitionedCall\/predict\/MobilenetV2\/expanded_conv_13\/depthwise\/BatchNorm\/FusedBatchNorm_nchw",
      "pad_fill_mode" : 0,
      "pad_b" : 0,
      "pad_l" : 0,
      "top" : "sequential\/keras_layer\/StatefulPartitionedCall\/StatefulPartitionedCall\/StatefulPartitionedCall\/predict\/MobilenetV2\/expanded_conv_13\/depthwise\/Relu6__relu6_relu__",
      "blob_weights" : 165,
      "K" : 576,
      "blob_biases" : 163,
      "stride_x" : 2,
      "name" : "sequential\/keras_layer\/StatefulPartitionedCall\/StatefulPartitionedCall\/StatefulPartitionedCall\/predict\/MobilenetV2\/expanded_conv_13\/depthwise\/BatchNorm\/FusedBatchNorm_nchw",
      "has_batch_norm" : 0,
      "type" : "convolution",
      "n_groups" : 576,
      "pad_t" : 0,
      "stride_y" : 2,
      "has_biases" : 1,
      "C" : 576,
      "bottom" : "sequential\/keras_layer\/StatefulPartitionedCall\/StatefulPartitionedCall\/StatefulPartitionedCall\/predict\/MobilenetV2\/expanded_conv_13\/expand\/Relu6",
      "weights" : {

      },
      "Nx" : 3,
      "pad_mode" : 1,
      "pad_value" : 0,
      "Ny" : 3,
      "n_parallel" : 1
    },
    {
      "alpha" : -1,
      "bottom" : "sequential\/keras_layer\/StatefulPartitionedCall\/StatefulPartitionedCall\/StatefulPartitionedCall\/predict\/MobilenetV2\/expanded_conv_13\/depthwise\/Relu6__relu6_relu__",
      "weights" : {

      },
      "mode" : 6,
      "debug_info" : "sequential\/keras_layer\/StatefulPartitionedCall\/StatefulPartitionedCall\/StatefulPartitionedCall\/predict\/MobilenetV2\/expanded_conv_13\/depthwise\/Relu6__relu6_neg__",
      "top" : "sequential\/keras_layer\/StatefulPartitionedCall\/StatefulPartitionedCall\/StatefulPartitionedCall\/predict\/MobilenetV2\/expanded_conv_13\/depthwise\/Relu6__relu6_neg__",
      "type" : "activation",
      "name" : "sequential\/keras_layer\/StatefulPartitionedCall\/StatefulPartitionedCall\/StatefulPartitionedCall\/predict\/MobilenetV2\/expanded_conv_13\/depthwise\/Relu6__relu6_neg__",
      "beta" : 0
    },
    {
      "bottom" : "sequential\/keras_layer\/StatefulPartitionedCall\/StatefulPartitionedCall\/StatefulPartitionedCall\/predict\/MobilenetV2\/expanded_conv_13\/depthwise\/Relu6__relu6_neg__",
      "alpha" : -6,
      "operation" : 25,
      "weights" : {

      },
      "fused_relu" : 0,
      "debug_info" : "sequential\/keras_layer\/StatefulPartitionedCall\/StatefulPartitionedCall\/StatefulPartitionedCall\/predict\/MobilenetV2\/expanded_conv_13\/depthwise\/Relu6__relu6_threshold6__",
      "top" : "sequential\/keras_layer\/StatefulPartitionedCall\/StatefulPartitionedCall\/StatefulPartitionedCall\/predict\/MobilenetV2\/expanded_conv_13\/depthwise\/Relu6__relu6_threshold6__",
      "type" : "elementwise",
      "name" : "sequential\/keras_layer\/StatefulPartitionedCall\/StatefulPartitionedCall\/StatefulPartitionedCall\/predict\/MobilenetV2\/expanded_conv_13\/depthwise\/Relu6__relu6_threshold6__",
      "beta" : 0
    },
    {
      "alpha" : -1,
      "bottom" : "sequential\/keras_layer\/StatefulPartitionedCall\/StatefulPartitionedCall\/StatefulPartitionedCall\/predict\/MobilenetV2\/expanded_conv_13\/depthwise\/Relu6__relu6_threshold6__",
      "weights" : {

      },
      "mode" : 6,
      "debug_info" : "sequential\/keras_layer\/StatefulPartitionedCall\/StatefulPartitionedCall\/StatefulPartitionedCall\/predict\/MobilenetV2\/expanded_conv_13\/depthwise\/Relu6",
      "top" : "sequential\/keras_layer\/StatefulPartitionedCall\/StatefulPartitionedCall\/StatefulPartitionedCall\/predict\/MobilenetV2\/expanded_conv_13\/depthwise\/Relu6",
      "type" : "activation",
      "name" : "sequential\/keras_layer\/StatefulPartitionedCall\/StatefulPartitionedCall\/StatefulPartitionedCall\/predict\/MobilenetV2\/expanded_conv_13\/depthwise\/Relu6",
      "beta" : 0
    },
    {
      "pad_r" : 0,
      "fused_relu" : 0,
      "fused_tanh" : 0,
      "debug_info" : "sequential\/keras_layer\/StatefulPartitionedCall\/StatefulPartitionedCall\/StatefulPartitionedCall\/predict\/MobilenetV2\/expanded_conv_13\/project\/BatchNorm\/FusedBatchNorm_nchw",
      "pad_fill_mode" : 0,
      "pad_b" : 0,
      "pad_l" : 0,
      "top" : "sequential\/keras_layer\/StatefulPartitionedCall\/StatefulPartitionedCall\/StatefulPartitionedCall\/predict\/MobilenetV2\/expanded_conv_13\/project\/BatchNorm\/FusedBatchNorm_nchw",
      "blob_weights" : 169,
      "K" : 576,
      "blob_biases" : 167,
      "name" : "sequential\/keras_layer\/StatefulPartitionedCall\/StatefulPartitionedCall\/StatefulPartitionedCall\/predict\/MobilenetV2\/expanded_conv_13\/project\/BatchNorm\/FusedBatchNorm_nchw",
      "has_batch_norm" : 0,
      "type" : "convolution",
      "n_groups" : 1,
      "pad_t" : 0,
      "has_biases" : 1,
      "C" : 160,
      "bottom" : "sequential\/keras_layer\/StatefulPartitionedCall\/StatefulPartitionedCall\/StatefulPartitionedCall\/predict\/MobilenetV2\/expanded_conv_13\/depthwise\/Relu6",
      "weights" : {

      },
      "Nx" : 1,
      "pad_mode" : 1,
      "pad_value" : 0,
      "Ny" : 1,
      "n_parallel" : 1
    },
    {
      "pad_r" : 0,
      "fused_relu" : 1,
      "fused_tanh" : 0,
      "debug_info" : "sequential\/keras_layer\/StatefulPartitionedCall\/StatefulPartitionedCall\/StatefulPartitionedCall\/predict\/MobilenetV2\/expanded_conv_14\/expand\/BatchNorm\/FusedBatchNorm_nchw",
      "pad_fill_mode" : 0,
      "pad_b" : 0,
      "pad_l" : 0,
      "top" : "sequential\/keras_layer\/StatefulPartitionedCall\/StatefulPartitionedCall\/StatefulPartitionedCall\/predict\/MobilenetV2\/expanded_conv_14\/expand\/Relu6__relu6_relu__",
      "blob_weights" : 173,
      "K" : 160,
      "blob_biases" : 171,
      "name" : "sequential\/keras_layer\/StatefulPartitionedCall\/StatefulPartitionedCall\/StatefulPartitionedCall\/predict\/MobilenetV2\/expanded_conv_14\/expand\/BatchNorm\/FusedBatchNorm_nchw",
      "has_batch_norm" : 0,
      "type" : "convolution",
      "n_groups" : 1,
      "pad_t" : 0,
      "has_biases" : 1,
      "C" : 960,
      "bottom" : "sequential\/keras_layer\/StatefulPartitionedCall\/StatefulPartitionedCall\/StatefulPartitionedCall\/predict\/MobilenetV2\/expanded_conv_13\/project\/BatchNorm\/FusedBatchNorm_nchw",
      "weights" : {

      },
      "Nx" : 1,
      "pad_mode" : 1,
      "pad_value" : 0,
      "Ny" : 1,
      "n_parallel" : 1
    },
    {
      "alpha" : -1,
      "bottom" : "sequential\/keras_layer\/StatefulPartitionedCall\/StatefulPartitionedCall\/StatefulPartitionedCall\/predict\/MobilenetV2\/expanded_conv_14\/expand\/Relu6__relu6_relu__",
      "weights" : {

      },
      "mode" : 6,
      "debug_info" : "sequential\/keras_layer\/StatefulPartitionedCall\/StatefulPartitionedCall\/StatefulPartitionedCall\/predict\/MobilenetV2\/expanded_conv_14\/expand\/Relu6__relu6_neg__",
      "top" : "sequential\/keras_layer\/StatefulPartitionedCall\/StatefulPartitionedCall\/StatefulPartitionedCall\/predict\/MobilenetV2\/expanded_conv_14\/expand\/Relu6__relu6_neg__",
      "type" : "activation",
      "name" : "sequential\/keras_layer\/StatefulPartitionedCall\/StatefulPartitionedCall\/StatefulPartitionedCall\/predict\/MobilenetV2\/expanded_conv_14\/expand\/Relu6__relu6_neg__",
      "beta" : 0
    },
    {
      "bottom" : "sequential\/keras_layer\/StatefulPartitionedCall\/StatefulPartitionedCall\/StatefulPartitionedCall\/predict\/MobilenetV2\/expanded_conv_14\/expand\/Relu6__relu6_neg__",
      "alpha" : -6,
      "operation" : 25,
      "weights" : {

      },
      "fused_relu" : 0,
      "debug_info" : "sequential\/keras_layer\/StatefulPartitionedCall\/StatefulPartitionedCall\/StatefulPartitionedCall\/predict\/MobilenetV2\/expanded_conv_14\/expand\/Relu6__relu6_threshold6__",
      "top" : "sequential\/keras_layer\/StatefulPartitionedCall\/StatefulPartitionedCall\/StatefulPartitionedCall\/predict\/MobilenetV2\/expanded_conv_14\/expand\/Relu6__relu6_threshold6__",
      "type" : "elementwise",
      "name" : "sequential\/keras_layer\/StatefulPartitionedCall\/StatefulPartitionedCall\/StatefulPartitionedCall\/predict\/MobilenetV2\/expanded_conv_14\/expand\/Relu6__relu6_threshold6__",
      "beta" : 0
    },
    {
      "alpha" : -1,
      "bottom" : "sequential\/keras_layer\/StatefulPartitionedCall\/StatefulPartitionedCall\/StatefulPartitionedCall\/predict\/MobilenetV2\/expanded_conv_14\/expand\/Relu6__relu6_threshold6__",
      "weights" : {

      },
      "mode" : 6,
      "debug_info" : "sequential\/keras_layer\/StatefulPartitionedCall\/StatefulPartitionedCall\/StatefulPartitionedCall\/predict\/MobilenetV2\/expanded_conv_14\/expand\/Relu6",
      "top" : "sequential\/keras_layer\/StatefulPartitionedCall\/StatefulPartitionedCall\/StatefulPartitionedCall\/predict\/MobilenetV2\/expanded_conv_14\/expand\/Relu6",
      "type" : "activation",
      "name" : "sequential\/keras_layer\/StatefulPartitionedCall\/StatefulPartitionedCall\/StatefulPartitionedCall\/predict\/MobilenetV2\/expanded_conv_14\/expand\/Relu6",
      "beta" : 0
    },
    {
      "pad_r" : 0,
      "fused_relu" : 1,
      "fused_tanh" : 0,
      "debug_info" : "sequential\/keras_layer\/StatefulPartitionedCall\/StatefulPartitionedCall\/StatefulPartitionedCall\/predict\/MobilenetV2\/expanded_conv_14\/depthwise\/BatchNorm\/FusedBatchNorm_nchw",
      "pad_fill_mode" : 0,
      "pad_b" : 0,
      "pad_l" : 0,
      "top" : "sequential\/keras_layer\/StatefulPartitionedCall\/StatefulPartitionedCall\/StatefulPartitionedCall\/predict\/MobilenetV2\/expanded_conv_14\/depthwise\/Relu6__relu6_relu__",
      "blob_weights" : 177,
      "K" : 960,
      "blob_biases" : 175,
      "name" : "sequential\/keras_layer\/StatefulPartitionedCall\/StatefulPartitionedCall\/StatefulPartitionedCall\/predict\/MobilenetV2\/expanded_conv_14\/depthwise\/BatchNorm\/FusedBatchNorm_nchw",
      "has_batch_norm" : 0,
      "type" : "convolution",
      "n_groups" : 960,
      "pad_t" : 0,
      "has_biases" : 1,
      "C" : 960,
      "bottom" : "sequential\/keras_layer\/StatefulPartitionedCall\/StatefulPartitionedCall\/StatefulPartitionedCall\/predict\/MobilenetV2\/expanded_conv_14\/expand\/Relu6",
      "weights" : {

      },
      "Nx" : 3,
      "pad_mode" : 1,
      "pad_value" : 0,
      "Ny" : 3,
      "n_parallel" : 1
    },
    {
      "alpha" : -1,
      "bottom" : "sequential\/keras_layer\/StatefulPartitionedCall\/StatefulPartitionedCall\/StatefulPartitionedCall\/predict\/MobilenetV2\/expanded_conv_14\/depthwise\/Relu6__relu6_relu__",
      "weights" : {

      },
      "mode" : 6,
      "debug_info" : "sequential\/keras_layer\/StatefulPartitionedCall\/StatefulPartitionedCall\/StatefulPartitionedCall\/predict\/MobilenetV2\/expanded_conv_14\/depthwise\/Relu6__relu6_neg__",
      "top" : "sequential\/keras_layer\/StatefulPartitionedCall\/StatefulPartitionedCall\/StatefulPartitionedCall\/predict\/MobilenetV2\/expanded_conv_14\/depthwise\/Relu6__relu6_neg__",
      "type" : "activation",
      "name" : "sequential\/keras_layer\/StatefulPartitionedCall\/StatefulPartitionedCall\/StatefulPartitionedCall\/predict\/MobilenetV2\/expanded_conv_14\/depthwise\/Relu6__relu6_neg__",
      "beta" : 0
    },
    {
      "bottom" : "sequential\/keras_layer\/StatefulPartitionedCall\/StatefulPartitionedCall\/StatefulPartitionedCall\/predict\/MobilenetV2\/expanded_conv_14\/depthwise\/Relu6__relu6_neg__",
      "alpha" : -6,
      "operation" : 25,
      "weights" : {

      },
      "fused_relu" : 0,
      "debug_info" : "sequential\/keras_layer\/StatefulPartitionedCall\/StatefulPartitionedCall\/StatefulPartitionedCall\/predict\/MobilenetV2\/expanded_conv_14\/depthwise\/Relu6__relu6_threshold6__",
      "top" : "sequential\/keras_layer\/StatefulPartitionedCall\/StatefulPartitionedCall\/StatefulPartitionedCall\/predict\/MobilenetV2\/expanded_conv_14\/depthwise\/Relu6__relu6_threshold6__",
      "type" : "elementwise",
      "name" : "sequential\/keras_layer\/StatefulPartitionedCall\/StatefulPartitionedCall\/StatefulPartitionedCall\/predict\/MobilenetV2\/expanded_conv_14\/depthwise\/Relu6__relu6_threshold6__",
      "beta" : 0
    },
    {
      "alpha" : -1,
      "bottom" : "sequential\/keras_layer\/StatefulPartitionedCall\/StatefulPartitionedCall\/StatefulPartitionedCall\/predict\/MobilenetV2\/expanded_conv_14\/depthwise\/Relu6__relu6_threshold6__",
      "weights" : {

      },
      "mode" : 6,
      "debug_info" : "sequential\/keras_layer\/StatefulPartitionedCall\/StatefulPartitionedCall\/StatefulPartitionedCall\/predict\/MobilenetV2\/expanded_conv_14\/depthwise\/Relu6",
      "top" : "sequential\/keras_layer\/StatefulPartitionedCall\/StatefulPartitionedCall\/StatefulPartitionedCall\/predict\/MobilenetV2\/expanded_conv_14\/depthwise\/Relu6",
      "type" : "activation",
      "name" : "sequential\/keras_layer\/StatefulPartitionedCall\/StatefulPartitionedCall\/StatefulPartitionedCall\/predict\/MobilenetV2\/expanded_conv_14\/depthwise\/Relu6",
      "beta" : 0
    },
    {
      "pad_r" : 0,
      "fused_relu" : 0,
      "fused_tanh" : 0,
      "debug_info" : "sequential\/keras_layer\/StatefulPartitionedCall\/StatefulPartitionedCall\/StatefulPartitionedCall\/predict\/MobilenetV2\/expanded_conv_14\/project\/BatchNorm\/FusedBatchNorm_nchw",
      "pad_fill_mode" : 0,
      "pad_b" : 0,
      "pad_l" : 0,
      "top" : "sequential\/keras_layer\/StatefulPartitionedCall\/StatefulPartitionedCall\/StatefulPartitionedCall\/predict\/MobilenetV2\/expanded_conv_14\/project\/BatchNorm\/FusedBatchNorm_nchw",
      "blob_weights" : 181,
      "K" : 960,
      "blob_biases" : 179,
      "name" : "sequential\/keras_layer\/StatefulPartitionedCall\/StatefulPartitionedCall\/StatefulPartitionedCall\/predict\/MobilenetV2\/expanded_conv_14\/project\/BatchNorm\/FusedBatchNorm_nchw",
      "has_batch_norm" : 0,
      "type" : "convolution",
      "n_groups" : 1,
      "pad_t" : 0,
      "has_biases" : 1,
      "C" : 160,
      "bottom" : "sequential\/keras_layer\/StatefulPartitionedCall\/StatefulPartitionedCall\/StatefulPartitionedCall\/predict\/MobilenetV2\/expanded_conv_14\/depthwise\/Relu6",
      "weights" : {

      },
      "Nx" : 1,
      "pad_mode" : 1,
      "pad_value" : 0,
      "Ny" : 1,
      "n_parallel" : 1
    },
    {
      "bottom" : "sequential\/keras_layer\/StatefulPartitionedCall\/StatefulPartitionedCall\/StatefulPartitionedCall\/predict\/MobilenetV2\/expanded_conv_14\/project\/BatchNorm\/FusedBatchNorm_nchw,sequential\/keras_layer\/StatefulPartitionedCall\/StatefulPartitionedCall\/StatefulPartitionedCall\/predict\/MobilenetV2\/expanded_conv_13\/project\/BatchNorm\/FusedBatchNorm_nchw",
      "alpha" : 1,
      "operation" : 0,
      "weights" : {

      },
      "fused_relu" : 0,
      "debug_info" : "sequential\/keras_layer\/StatefulPartitionedCall\/StatefulPartitionedCall\/StatefulPartitionedCall\/predict\/MobilenetV2\/expanded_conv_14\/add",
      "top" : "sequential\/keras_layer\/StatefulPartitionedCall\/StatefulPartitionedCall\/StatefulPartitionedCall\/predict\/MobilenetV2\/expanded_conv_14\/add",
      "type" : "elementwise",
      "name" : "sequential\/keras_layer\/StatefulPartitionedCall\/StatefulPartitionedCall\/StatefulPartitionedCall\/predict\/MobilenetV2\/expanded_conv_14\/add",
      "beta" : 0
    },
    {
      "pad_r" : 0,
      "fused_relu" : 1,
      "fused_tanh" : 0,
      "debug_info" : "sequential\/keras_layer\/StatefulPartitionedCall\/StatefulPartitionedCall\/StatefulPartitionedCall\/predict\/MobilenetV2\/expanded_conv_15\/expand\/BatchNorm\/FusedBatchNorm_nchw",
      "pad_fill_mode" : 0,
      "pad_b" : 0,
      "pad_l" : 0,
      "top" : "sequential\/keras_layer\/StatefulPartitionedCall\/StatefulPartitionedCall\/StatefulPartitionedCall\/predict\/MobilenetV2\/expanded_conv_15\/expand\/Relu6__relu6_relu__",
      "blob_weights" : 185,
      "K" : 160,
      "blob_biases" : 183,
      "name" : "sequential\/keras_layer\/StatefulPartitionedCall\/StatefulPartitionedCall\/StatefulPartitionedCall\/predict\/MobilenetV2\/expanded_conv_15\/expand\/BatchNorm\/FusedBatchNorm_nchw",
      "has_batch_norm" : 0,
      "type" : "convolution",
      "n_groups" : 1,
      "pad_t" : 0,
      "has_biases" : 1,
      "C" : 960,
      "bottom" : "sequential\/keras_layer\/StatefulPartitionedCall\/StatefulPartitionedCall\/StatefulPartitionedCall\/predict\/MobilenetV2\/expanded_conv_14\/add",
      "weights" : {

      },
      "Nx" : 1,
      "pad_mode" : 1,
      "pad_value" : 0,
      "Ny" : 1,
      "n_parallel" : 1
    },
    {
      "alpha" : -1,
      "bottom" : "sequential\/keras_layer\/StatefulPartitionedCall\/StatefulPartitionedCall\/StatefulPartitionedCall\/predict\/MobilenetV2\/expanded_conv_15\/expand\/Relu6__relu6_relu__",
      "weights" : {

      },
      "mode" : 6,
      "debug_info" : "sequential\/keras_layer\/StatefulPartitionedCall\/StatefulPartitionedCall\/StatefulPartitionedCall\/predict\/MobilenetV2\/expanded_conv_15\/expand\/Relu6__relu6_neg__",
      "top" : "sequential\/keras_layer\/StatefulPartitionedCall\/StatefulPartitionedCall\/StatefulPartitionedCall\/predict\/MobilenetV2\/expanded_conv_15\/expand\/Relu6__relu6_neg__",
      "type" : "activation",
      "name" : "sequential\/keras_layer\/StatefulPartitionedCall\/StatefulPartitionedCall\/StatefulPartitionedCall\/predict\/MobilenetV2\/expanded_conv_15\/expand\/Relu6__relu6_neg__",
      "beta" : 0
    },
    {
      "bottom" : "sequential\/keras_layer\/StatefulPartitionedCall\/StatefulPartitionedCall\/StatefulPartitionedCall\/predict\/MobilenetV2\/expanded_conv_15\/expand\/Relu6__relu6_neg__",
      "alpha" : -6,
      "operation" : 25,
      "weights" : {

      },
      "fused_relu" : 0,
      "debug_info" : "sequential\/keras_layer\/StatefulPartitionedCall\/StatefulPartitionedCall\/StatefulPartitionedCall\/predict\/MobilenetV2\/expanded_conv_15\/expand\/Relu6__relu6_threshold6__",
      "top" : "sequential\/keras_layer\/StatefulPartitionedCall\/StatefulPartitionedCall\/StatefulPartitionedCall\/predict\/MobilenetV2\/expanded_conv_15\/expand\/Relu6__relu6_threshold6__",
      "type" : "elementwise",
      "name" : "sequential\/keras_layer\/StatefulPartitionedCall\/StatefulPartitionedCall\/StatefulPartitionedCall\/predict\/MobilenetV2\/expanded_conv_15\/expand\/Relu6__relu6_threshold6__",
      "beta" : 0
    },
    {
      "alpha" : -1,
      "bottom" : "sequential\/keras_layer\/StatefulPartitionedCall\/StatefulPartitionedCall\/StatefulPartitionedCall\/predict\/MobilenetV2\/expanded_conv_15\/expand\/Relu6__relu6_threshold6__",
      "weights" : {

      },
      "mode" : 6,
      "debug_info" : "sequential\/keras_layer\/StatefulPartitionedCall\/StatefulPartitionedCall\/StatefulPartitionedCall\/predict\/MobilenetV2\/expanded_conv_15\/expand\/Relu6",
      "top" : "sequential\/keras_layer\/StatefulPartitionedCall\/StatefulPartitionedCall\/StatefulPartitionedCall\/predict\/MobilenetV2\/expanded_conv_15\/expand\/Relu6",
      "type" : "activation",
      "name" : "sequential\/keras_layer\/StatefulPartitionedCall\/StatefulPartitionedCall\/StatefulPartitionedCall\/predict\/MobilenetV2\/expanded_conv_15\/expand\/Relu6",
      "beta" : 0
    },
    {
      "pad_r" : 0,
      "fused_relu" : 1,
      "fused_tanh" : 0,
      "debug_info" : "sequential\/keras_layer\/StatefulPartitionedCall\/StatefulPartitionedCall\/StatefulPartitionedCall\/predict\/MobilenetV2\/expanded_conv_15\/depthwise\/BatchNorm\/FusedBatchNorm_nchw",
      "pad_fill_mode" : 0,
      "pad_b" : 0,
      "pad_l" : 0,
      "top" : "sequential\/keras_layer\/StatefulPartitionedCall\/StatefulPartitionedCall\/StatefulPartitionedCall\/predict\/MobilenetV2\/expanded_conv_15\/depthwise\/Relu6__relu6_relu__",
      "blob_weights" : 189,
      "K" : 960,
      "blob_biases" : 187,
      "name" : "sequential\/keras_layer\/StatefulPartitionedCall\/StatefulPartitionedCall\/StatefulPartitionedCall\/predict\/MobilenetV2\/expanded_conv_15\/depthwise\/BatchNorm\/FusedBatchNorm_nchw",
      "has_batch_norm" : 0,
      "type" : "convolution",
      "n_groups" : 960,
      "pad_t" : 0,
      "has_biases" : 1,
      "C" : 960,
      "bottom" : "sequential\/keras_layer\/StatefulPartitionedCall\/StatefulPartitionedCall\/StatefulPartitionedCall\/predict\/MobilenetV2\/expanded_conv_15\/expand\/Relu6",
      "weights" : {

      },
      "Nx" : 3,
      "pad_mode" : 1,
      "pad_value" : 0,
      "Ny" : 3,
      "n_parallel" : 1
    },
    {
      "alpha" : -1,
      "bottom" : "sequential\/keras_layer\/StatefulPartitionedCall\/StatefulPartitionedCall\/StatefulPartitionedCall\/predict\/MobilenetV2\/expanded_conv_15\/depthwise\/Relu6__relu6_relu__",
      "weights" : {

      },
      "mode" : 6,
      "debug_info" : "sequential\/keras_layer\/StatefulPartitionedCall\/StatefulPartitionedCall\/StatefulPartitionedCall\/predict\/MobilenetV2\/expanded_conv_15\/depthwise\/Relu6__relu6_neg__",
      "top" : "sequential\/keras_layer\/StatefulPartitionedCall\/StatefulPartitionedCall\/StatefulPartitionedCall\/predict\/MobilenetV2\/expanded_conv_15\/depthwise\/Relu6__relu6_neg__",
      "type" : "activation",
      "name" : "sequential\/keras_layer\/StatefulPartitionedCall\/StatefulPartitionedCall\/StatefulPartitionedCall\/predict\/MobilenetV2\/expanded_conv_15\/depthwise\/Relu6__relu6_neg__",
      "beta" : 0
    },
    {
      "bottom" : "sequential\/keras_layer\/StatefulPartitionedCall\/StatefulPartitionedCall\/StatefulPartitionedCall\/predict\/MobilenetV2\/expanded_conv_15\/depthwise\/Relu6__relu6_neg__",
      "alpha" : -6,
      "operation" : 25,
      "weights" : {

      },
      "fused_relu" : 0,
      "debug_info" : "sequential\/keras_layer\/StatefulPartitionedCall\/StatefulPartitionedCall\/StatefulPartitionedCall\/predict\/MobilenetV2\/expanded_conv_15\/depthwise\/Relu6__relu6_threshold6__",
      "top" : "sequential\/keras_layer\/StatefulPartitionedCall\/StatefulPartitionedCall\/StatefulPartitionedCall\/predict\/MobilenetV2\/expanded_conv_15\/depthwise\/Relu6__relu6_threshold6__",
      "type" : "elementwise",
      "name" : "sequential\/keras_layer\/StatefulPartitionedCall\/StatefulPartitionedCall\/StatefulPartitionedCall\/predict\/MobilenetV2\/expanded_conv_15\/depthwise\/Relu6__relu6_threshold6__",
      "beta" : 0
    },
    {
      "alpha" : -1,
      "bottom" : "sequential\/keras_layer\/StatefulPartitionedCall\/StatefulPartitionedCall\/StatefulPartitionedCall\/predict\/MobilenetV2\/expanded_conv_15\/depthwise\/Relu6__relu6_threshold6__",
      "weights" : {

      },
      "mode" : 6,
      "debug_info" : "sequential\/keras_layer\/StatefulPartitionedCall\/StatefulPartitionedCall\/StatefulPartitionedCall\/predict\/MobilenetV2\/expanded_conv_15\/depthwise\/Relu6",
      "top" : "sequential\/keras_layer\/StatefulPartitionedCall\/StatefulPartitionedCall\/StatefulPartitionedCall\/predict\/MobilenetV2\/expanded_conv_15\/depthwise\/Relu6",
      "type" : "activation",
      "name" : "sequential\/keras_layer\/StatefulPartitionedCall\/StatefulPartitionedCall\/StatefulPartitionedCall\/predict\/MobilenetV2\/expanded_conv_15\/depthwise\/Relu6",
      "beta" : 0
    },
    {
      "pad_r" : 0,
      "fused_relu" : 0,
      "fused_tanh" : 0,
      "debug_info" : "sequential\/keras_layer\/StatefulPartitionedCall\/StatefulPartitionedCall\/StatefulPartitionedCall\/predict\/MobilenetV2\/expanded_conv_15\/project\/BatchNorm\/FusedBatchNorm_nchw",
      "pad_fill_mode" : 0,
      "pad_b" : 0,
      "pad_l" : 0,
      "top" : "sequential\/keras_layer\/StatefulPartitionedCall\/StatefulPartitionedCall\/StatefulPartitionedCall\/predict\/MobilenetV2\/expanded_conv_15\/project\/BatchNorm\/FusedBatchNorm_nchw",
      "blob_weights" : 193,
      "K" : 960,
      "blob_biases" : 191,
      "name" : "sequential\/keras_layer\/StatefulPartitionedCall\/StatefulPartitionedCall\/StatefulPartitionedCall\/predict\/MobilenetV2\/expanded_conv_15\/project\/BatchNorm\/FusedBatchNorm_nchw",
      "has_batch_norm" : 0,
      "type" : "convolution",
      "n_groups" : 1,
      "pad_t" : 0,
      "has_biases" : 1,
      "C" : 160,
      "bottom" : "sequential\/keras_layer\/StatefulPartitionedCall\/StatefulPartitionedCall\/StatefulPartitionedCall\/predict\/MobilenetV2\/expanded_conv_15\/depthwise\/Relu6",
      "weights" : {

      },
      "Nx" : 1,
      "pad_mode" : 1,
      "pad_value" : 0,
      "Ny" : 1,
      "n_parallel" : 1
    },
    {
      "bottom" : "sequential\/keras_layer\/StatefulPartitionedCall\/StatefulPartitionedCall\/StatefulPartitionedCall\/predict\/MobilenetV2\/expanded_conv_15\/project\/BatchNorm\/FusedBatchNorm_nchw,sequential\/keras_layer\/StatefulPartitionedCall\/StatefulPartitionedCall\/StatefulPartitionedCall\/predict\/MobilenetV2\/expanded_conv_14\/add",
      "alpha" : 1,
      "operation" : 0,
      "weights" : {

      },
      "fused_relu" : 0,
      "debug_info" : "sequential\/keras_layer\/StatefulPartitionedCall\/StatefulPartitionedCall\/StatefulPartitionedCall\/predict\/MobilenetV2\/expanded_conv_15\/add",
      "top" : "sequential\/keras_layer\/StatefulPartitionedCall\/StatefulPartitionedCall\/StatefulPartitionedCall\/predict\/MobilenetV2\/expanded_conv_15\/add",
      "type" : "elementwise",
      "name" : "sequential\/keras_layer\/StatefulPartitionedCall\/StatefulPartitionedCall\/StatefulPartitionedCall\/predict\/MobilenetV2\/expanded_conv_15\/add",
      "beta" : 0
    },
    {
      "pad_r" : 0,
      "fused_relu" : 1,
      "fused_tanh" : 0,
      "debug_info" : "sequential\/keras_layer\/StatefulPartitionedCall\/StatefulPartitionedCall\/StatefulPartitionedCall\/predict\/MobilenetV2\/expanded_conv_16\/expand\/BatchNorm\/FusedBatchNorm_nchw",
      "pad_fill_mode" : 0,
      "pad_b" : 0,
      "pad_l" : 0,
      "top" : "sequential\/keras_layer\/StatefulPartitionedCall\/StatefulPartitionedCall\/StatefulPartitionedCall\/predict\/MobilenetV2\/expanded_conv_16\/expand\/Relu6__relu6_relu__",
      "blob_weights" : 197,
      "K" : 160,
      "blob_biases" : 195,
      "name" : "sequential\/keras_layer\/StatefulPartitionedCall\/StatefulPartitionedCall\/StatefulPartitionedCall\/predict\/MobilenetV2\/expanded_conv_16\/expand\/BatchNorm\/FusedBatchNorm_nchw",
      "has_batch_norm" : 0,
      "type" : "convolution",
      "n_groups" : 1,
      "pad_t" : 0,
      "has_biases" : 1,
      "C" : 960,
      "bottom" : "sequential\/keras_layer\/StatefulPartitionedCall\/StatefulPartitionedCall\/StatefulPartitionedCall\/predict\/MobilenetV2\/expanded_conv_15\/add",
      "weights" : {

      },
      "Nx" : 1,
      "pad_mode" : 1,
      "pad_value" : 0,
      "Ny" : 1,
      "n_parallel" : 1
    },
    {
      "alpha" : -1,
      "bottom" : "sequential\/keras_layer\/StatefulPartitionedCall\/StatefulPartitionedCall\/StatefulPartitionedCall\/predict\/MobilenetV2\/expanded_conv_16\/expand\/Relu6__relu6_relu__",
      "weights" : {

      },
      "mode" : 6,
      "debug_info" : "sequential\/keras_layer\/StatefulPartitionedCall\/StatefulPartitionedCall\/StatefulPartitionedCall\/predict\/MobilenetV2\/expanded_conv_16\/expand\/Relu6__relu6_neg__",
      "top" : "sequential\/keras_layer\/StatefulPartitionedCall\/StatefulPartitionedCall\/StatefulPartitionedCall\/predict\/MobilenetV2\/expanded_conv_16\/expand\/Relu6__relu6_neg__",
      "type" : "activation",
      "name" : "sequential\/keras_layer\/StatefulPartitionedCall\/StatefulPartitionedCall\/StatefulPartitionedCall\/predict\/MobilenetV2\/expanded_conv_16\/expand\/Relu6__relu6_neg__",
      "beta" : 0
    },
    {
      "bottom" : "sequential\/keras_layer\/StatefulPartitionedCall\/StatefulPartitionedCall\/StatefulPartitionedCall\/predict\/MobilenetV2\/expanded_conv_16\/expand\/Relu6__relu6_neg__",
      "alpha" : -6,
      "operation" : 25,
      "weights" : {

      },
      "fused_relu" : 0,
      "debug_info" : "sequential\/keras_layer\/StatefulPartitionedCall\/StatefulPartitionedCall\/StatefulPartitionedCall\/predict\/MobilenetV2\/expanded_conv_16\/expand\/Relu6__relu6_threshold6__",
      "top" : "sequential\/keras_layer\/StatefulPartitionedCall\/StatefulPartitionedCall\/StatefulPartitionedCall\/predict\/MobilenetV2\/expanded_conv_16\/expand\/Relu6__relu6_threshold6__",
      "type" : "elementwise",
      "name" : "sequential\/keras_layer\/StatefulPartitionedCall\/StatefulPartitionedCall\/StatefulPartitionedCall\/predict\/MobilenetV2\/expanded_conv_16\/expand\/Relu6__relu6_threshold6__",
      "beta" : 0
    },
    {
      "alpha" : -1,
      "bottom" : "sequential\/keras_layer\/StatefulPartitionedCall\/StatefulPartitionedCall\/StatefulPartitionedCall\/predict\/MobilenetV2\/expanded_conv_16\/expand\/Relu6__relu6_threshold6__",
      "weights" : {

      },
      "mode" : 6,
      "debug_info" : "sequential\/keras_layer\/StatefulPartitionedCall\/StatefulPartitionedCall\/StatefulPartitionedCall\/predict\/MobilenetV2\/expanded_conv_16\/expand\/Relu6",
      "top" : "sequential\/keras_layer\/StatefulPartitionedCall\/StatefulPartitionedCall\/StatefulPartitionedCall\/predict\/MobilenetV2\/expanded_conv_16\/expand\/Relu6",
      "type" : "activation",
      "name" : "sequential\/keras_layer\/StatefulPartitionedCall\/StatefulPartitionedCall\/StatefulPartitionedCall\/predict\/MobilenetV2\/expanded_conv_16\/expand\/Relu6",
      "beta" : 0
    },
    {
      "pad_r" : 0,
      "fused_relu" : 1,
      "fused_tanh" : 0,
      "debug_info" : "sequential\/keras_layer\/StatefulPartitionedCall\/StatefulPartitionedCall\/StatefulPartitionedCall\/predict\/MobilenetV2\/expanded_conv_16\/depthwise\/BatchNorm\/FusedBatchNorm_nchw",
      "pad_fill_mode" : 0,
      "pad_b" : 0,
      "pad_l" : 0,
      "top" : "sequential\/keras_layer\/StatefulPartitionedCall\/StatefulPartitionedCall\/StatefulPartitionedCall\/predict\/MobilenetV2\/expanded_conv_16\/depthwise\/Relu6__relu6_relu__",
      "blob_weights" : 201,
      "K" : 960,
      "blob_biases" : 199,
      "name" : "sequential\/keras_layer\/StatefulPartitionedCall\/StatefulPartitionedCall\/StatefulPartitionedCall\/predict\/MobilenetV2\/expanded_conv_16\/depthwise\/BatchNorm\/FusedBatchNorm_nchw",
      "has_batch_norm" : 0,
      "type" : "convolution",
      "n_groups" : 960,
      "pad_t" : 0,
      "has_biases" : 1,
      "C" : 960,
      "bottom" : "sequential\/keras_layer\/StatefulPartitionedCall\/StatefulPartitionedCall\/StatefulPartitionedCall\/predict\/MobilenetV2\/expanded_conv_16\/expand\/Relu6",
      "weights" : {

      },
      "Nx" : 3,
      "pad_mode" : 1,
      "pad_value" : 0,
      "Ny" : 3,
      "n_parallel" : 1
    },
    {
      "alpha" : -1,
      "bottom" : "sequential\/keras_layer\/StatefulPartitionedCall\/StatefulPartitionedCall\/StatefulPartitionedCall\/predict\/MobilenetV2\/expanded_conv_16\/depthwise\/Relu6__relu6_relu__",
      "weights" : {

      },
      "mode" : 6,
      "debug_info" : "sequential\/keras_layer\/StatefulPartitionedCall\/StatefulPartitionedCall\/StatefulPartitionedCall\/predict\/MobilenetV2\/expanded_conv_16\/depthwise\/Relu6__relu6_neg__",
      "top" : "sequential\/keras_layer\/StatefulPartitionedCall\/StatefulPartitionedCall\/StatefulPartitionedCall\/predict\/MobilenetV2\/expanded_conv_16\/depthwise\/Relu6__relu6_neg__",
      "type" : "activation",
      "name" : "sequential\/keras_layer\/StatefulPartitionedCall\/StatefulPartitionedCall\/StatefulPartitionedCall\/predict\/MobilenetV2\/expanded_conv_16\/depthwise\/Relu6__relu6_neg__",
      "beta" : 0
    },
    {
      "bottom" : "sequential\/keras_layer\/StatefulPartitionedCall\/StatefulPartitionedCall\/StatefulPartitionedCall\/predict\/MobilenetV2\/expanded_conv_16\/depthwise\/Relu6__relu6_neg__",
      "alpha" : -6,
      "operation" : 25,
      "weights" : {

      },
      "fused_relu" : 0,
      "debug_info" : "sequential\/keras_layer\/StatefulPartitionedCall\/StatefulPartitionedCall\/StatefulPartitionedCall\/predict\/MobilenetV2\/expanded_conv_16\/depthwise\/Relu6__relu6_threshold6__",
      "top" : "sequential\/keras_layer\/StatefulPartitionedCall\/StatefulPartitionedCall\/StatefulPartitionedCall\/predict\/MobilenetV2\/expanded_conv_16\/depthwise\/Relu6__relu6_threshold6__",
      "type" : "elementwise",
      "name" : "sequential\/keras_layer\/StatefulPartitionedCall\/StatefulPartitionedCall\/StatefulPartitionedCall\/predict\/MobilenetV2\/expanded_conv_16\/depthwise\/Relu6__relu6_threshold6__",
      "beta" : 0
    },
    {
      "alpha" : -1,
      "bottom" : "sequential\/keras_layer\/StatefulPartitionedCall\/StatefulPartitionedCall\/StatefulPartitionedCall\/predict\/MobilenetV2\/expanded_conv_16\/depthwise\/Relu6__relu6_threshold6__",
      "weights" : {

      },
      "mode" : 6,
      "debug_info" : "sequential\/keras_layer\/StatefulPartitionedCall\/StatefulPartitionedCall\/StatefulPartitionedCall\/predict\/MobilenetV2\/expanded_conv_16\/depthwise\/Relu6",
      "top" : "sequential\/keras_layer\/StatefulPartitionedCall\/StatefulPartitionedCall\/StatefulPartitionedCall\/predict\/MobilenetV2\/expanded_conv_16\/depthwise\/Relu6",
      "type" : "activation",
      "name" : "sequential\/keras_layer\/StatefulPartitionedCall\/StatefulPartitionedCall\/StatefulPartitionedCall\/predict\/MobilenetV2\/expanded_conv_16\/depthwise\/Relu6",
      "beta" : 0
    },
    {
      "pad_r" : 0,
      "fused_relu" : 0,
      "fused_tanh" : 0,
      "debug_info" : "sequential\/keras_layer\/StatefulPartitionedCall\/StatefulPartitionedCall\/StatefulPartitionedCall\/predict\/MobilenetV2\/expanded_conv_16\/project\/BatchNorm\/FusedBatchNorm_nchw",
      "pad_fill_mode" : 0,
      "pad_b" : 0,
      "pad_l" : 0,
      "top" : "sequential\/keras_layer\/StatefulPartitionedCall\/StatefulPartitionedCall\/StatefulPartitionedCall\/predict\/MobilenetV2\/expanded_conv_16\/project\/BatchNorm\/FusedBatchNorm_nchw",
      "blob_weights" : 205,
      "K" : 960,
      "blob_biases" : 203,
      "name" : "sequential\/keras_layer\/StatefulPartitionedCall\/StatefulPartitionedCall\/StatefulPartitionedCall\/predict\/MobilenetV2\/expanded_conv_16\/project\/BatchNorm\/FusedBatchNorm_nchw",
      "has_batch_norm" : 0,
      "type" : "convolution",
      "n_groups" : 1,
      "pad_t" : 0,
      "has_biases" : 1,
      "C" : 320,
      "bottom" : "sequential\/keras_layer\/StatefulPartitionedCall\/StatefulPartitionedCall\/StatefulPartitionedCall\/predict\/MobilenetV2\/expanded_conv_16\/depthwise\/Relu6",
      "weights" : {

      },
      "Nx" : 1,
      "pad_mode" : 1,
      "pad_value" : 0,
      "Ny" : 1,
      "n_parallel" : 1
    },
    {
      "pad_r" : 0,
      "fused_relu" : 1,
      "fused_tanh" : 0,
      "debug_info" : "sequential\/keras_layer\/StatefulPartitionedCall\/StatefulPartitionedCall\/StatefulPartitionedCall\/predict\/MobilenetV2\/Conv_1\/BatchNorm\/FusedBatchNorm_nchw",
      "pad_fill_mode" : 0,
      "pad_b" : 0,
      "pad_l" : 0,
      "top" : "sequential\/keras_layer\/StatefulPartitionedCall\/StatefulPartitionedCall\/StatefulPartitionedCall\/predict\/MobilenetV2\/Conv_1\/Relu6__relu6_relu__",
      "blob_weights" : 209,
      "K" : 320,
      "blob_biases" : 207,
      "name" : "sequential\/keras_layer\/StatefulPartitionedCall\/StatefulPartitionedCall\/StatefulPartitionedCall\/predict\/MobilenetV2\/Conv_1\/BatchNorm\/FusedBatchNorm_nchw",
      "has_batch_norm" : 0,
      "type" : "convolution",
      "n_groups" : 1,
      "pad_t" : 0,
      "has_biases" : 1,
      "C" : 1280,
      "bottom" : "sequential\/keras_layer\/StatefulPartitionedCall\/StatefulPartitionedCall\/StatefulPartitionedCall\/predict\/MobilenetV2\/expanded_conv_16\/project\/BatchNorm\/FusedBatchNorm_nchw",
      "weights" : {

      },
      "Nx" : 1,
      "pad_mode" : 1,
      "pad_value" : 0,
      "Ny" : 1,
      "n_parallel" : 1
    },
    {
      "alpha" : -1,
      "bottom" : "sequential\/keras_layer\/StatefulPartitionedCall\/StatefulPartitionedCall\/StatefulPartitionedCall\/predict\/MobilenetV2\/Conv_1\/Relu6__relu6_relu__",
      "weights" : {

      },
      "mode" : 6,
      "debug_info" : "sequential\/keras_layer\/StatefulPartitionedCall\/StatefulPartitionedCall\/StatefulPartitionedCall\/predict\/MobilenetV2\/Conv_1\/Relu6__relu6_neg__",
      "top" : "sequential\/keras_layer\/StatefulPartitionedCall\/StatefulPartitionedCall\/StatefulPartitionedCall\/predict\/MobilenetV2\/Conv_1\/Relu6__relu6_neg__",
      "type" : "activation",
      "name" : "sequential\/keras_layer\/StatefulPartitionedCall\/StatefulPartitionedCall\/StatefulPartitionedCall\/predict\/MobilenetV2\/Conv_1\/Relu6__relu6_neg__",
      "beta" : 0
    },
    {
      "bottom" : "sequential\/keras_layer\/StatefulPartitionedCall\/StatefulPartitionedCall\/StatefulPartitionedCall\/predict\/MobilenetV2\/Conv_1\/Relu6__relu6_neg__",
      "alpha" : -6,
      "operation" : 25,
      "weights" : {

      },
      "fused_relu" : 0,
      "debug_info" : "sequential\/keras_layer\/StatefulPartitionedCall\/StatefulPartitionedCall\/StatefulPartitionedCall\/predict\/MobilenetV2\/Conv_1\/Relu6__relu6_threshold6__",
      "top" : "sequential\/keras_layer\/StatefulPartitionedCall\/StatefulPartitionedCall\/StatefulPartitionedCall\/predict\/MobilenetV2\/Conv_1\/Relu6__relu6_threshold6__",
      "type" : "elementwise",
      "name" : "sequential\/keras_layer\/StatefulPartitionedCall\/StatefulPartitionedCall\/StatefulPartitionedCall\/predict\/MobilenetV2\/Conv_1\/Relu6__relu6_threshold6__",
      "beta" : 0
    },
    {
      "alpha" : -1,
      "bottom" : "sequential\/keras_layer\/StatefulPartitionedCall\/StatefulPartitionedCall\/StatefulPartitionedCall\/predict\/MobilenetV2\/Conv_1\/Relu6__relu6_threshold6__",
      "weights" : {

      },
      "mode" : 6,
      "debug_info" : "sequential\/keras_layer\/StatefulPartitionedCall\/StatefulPartitionedCall\/StatefulPartitionedCall\/predict\/MobilenetV2\/Conv_1\/Relu6",
      "top" : "sequential\/keras_layer\/StatefulPartitionedCall\/StatefulPartitionedCall\/StatefulPartitionedCall\/predict\/MobilenetV2\/Conv_1\/Relu6",
      "type" : "activation",
      "name" : "sequential\/keras_layer\/StatefulPartitionedCall\/StatefulPartitionedCall\/StatefulPartitionedCall\/predict\/MobilenetV2\/Conv_1\/Relu6",
      "beta" : 0
    },
    {
      "pad_r" : 0,
      "debug_info" : "avg_pool_0",
      "pad_fill_mode" : 0,
      "pad_b" : 0,
      "pad_l" : 0,
      "size_x" : 7,
      "top" : "avg_pool_0",
      "top_shape_style" : 0,
      "stride_x" : 1,
      "avg_or_max" : 0,
      "average_count_exclude_padding" : 1,
      "type" : "pool",
      "name" : "avg_pool_0",
      "pad_t" : 0,
      "stride_y" : 1,
      "bottom" : "sequential\/keras_layer\/StatefulPartitionedCall\/StatefulPartitionedCall\/StatefulPartitionedCall\/predict\/MobilenetV2\/Conv_1\/Relu6",
      "weights" : {

      },
      "pad_mode" : 2,
      "size_y" : 7,
      "pad_value" : 0
    },
    {
      "pad_r" : 0,
      "fused_relu" : 0,
      "fused_tanh" : 0,
      "debug_info" : "conv_0",
      "pad_fill_mode" : 0,
      "pad_b" : 0,
      "pad_l" : 0,
      "top" : "conv_0",
      "blob_weights" : 213,
      "K" : 1280,
      "blob_biases" : 211,
      "name" : "conv_0",
      "has_batch_norm" : 0,
      "type" : "convolution",
      "n_groups" : 1,
      "pad_t" : 0,
      "has_biases" : 1,
      "C" : 1001,
      "bottom" : "avg_pool_0",
      "weights" : {

      },
      "Nx" : 1,
      "pad_mode" : 1,
      "pad_value" : 0,
      "Ny" : 1,
      "n_parallel" : 1
    },
    {
      "axis_h" : 0,
      "axis_w" : 2,
      "bottom" : "conv_0",
      "axis_k" : 1,
      "axis_n" : 3,
      "axis_seq" : 4,
      "weights" : {

      },
      "debug_info" : "transpose_160",
      "top" : "transpose_160",
      "type" : "transpose",
      "name" : "transpose_160"
    },
    {
      "size_of_axes" : 2,
      "bottom" : "transpose_160",
      "axes_0" : 1,
      "axes_1" : 2,
      "weights" : {

      },
      "nd_axis" : 0,
      "debug_info" : "sequential\/keras_layer\/StatefulPartitionedCall\/StatefulPartitionedCall\/StatefulPartitionedCall\/predict\/MobilenetV2\/Logits\/Squeeze",
      "version" : 1,
      "top" : "sequential\/keras_layer\/StatefulPartitionedCall\/StatefulPartitionedCall\/StatefulPartitionedCall\/predict\/MobilenetV2\/Logits\/Squeeze",
      "type" : "squeeze",
      "name" : "sequential\/keras_layer\/StatefulPartitionedCall\/StatefulPartitionedCall\/StatefulPartitionedCall\/predict\/MobilenetV2\/Logits\/Squeeze"
    },
    {
      "nB" : 1001,
      "top" : "sequential\/dense\/BiasAdd",
      "has_biases" : 1,
      "weights" : {

      },
      "nC" : 26,
      "blob_weights" : 217,
      "type" : "inner_product",
      "has_relu" : 0,
      "bottom" : "sequential\/keras_layer\/StatefulPartitionedCall\/StatefulPartitionedCall\/StatefulPartitionedCall\/predict\/MobilenetV2\/Logits\/Squeeze",
      "blob_biases" : 215,
      "has_tanh" : 0,
      "debug_info" : "sequential\/dense\/BiasAdd",
      "name" : "sequential\/dense\/BiasAdd",
      "has_prelu" : 0
    },
    {
      "bottom" : "sequential\/dense\/BiasAdd",
      "weights" : {

      },
      "nd_axis" : -1,
      "debug_info" : "sequential\/softmax\/Softmax",
      "top" : "Identity",
      "type" : "softmax_nd",
      "name" : "sequential\/softmax\/Softmax",
      "attributes" : {
        "is_output" : 1
      }
    }
  ]
}